models/netG_epoch_60.pth (torch_old, 358091 bytes, 49 tensors)

encoder.0.weight f4 [8, 1, 3, 3]
0	0xbe43e057	-0.19128548
1	0xbcd2a6ef	-0.025714366
2	0x3d954ace	0.072896585
3	0xbe4a31a1	-0.19745494
4	0x3d1bf9c6	0.03808
5	0x3cc6d877	0.02427314
6	0xbb8feb08	-0.0043920316
7	0xbe07f84b	-0.1327831
8	0xbe8874c5	-0.26651588
9	0x3d50b0a5	0.05094971
10	0x3e2359fc	0.15952295
11	0x3cd2bfcc	0.025726222
12	0x3e2b2b5e	0.16715762
13	0x3ea67c4b	0.32516703
14	0xbcd82c22	-0.026388232
15	0x3da5f020	0.08102441
16	0x3e0f8fc4	0.14019686
17	0x3d742b47	0.059611585
18	0x3e03f3e1	0.12886001
19	0x3e149538	0.14510047
20	0x3ce9cfef	0.028541533
21	0x3e01b043	0.12664895
22	0x3bc28203	0.0059359088
23	0xbda5ab30	-0.08089292
24	0x3d426ce0	0.047467113
25	0xbdd89cd7	-0.1057679
26	0xbe88a573	-0.26688728
27	0x3bf92f4d	0.0076045156
28	0x3da07562	0.07834889
29	0x3e058329	0.13038315
30	0xbdaf6fbc	-0.085662335
31	0x3d1308b5	0.035896976
32	0x3da8912e	0.08230816
33	0xbe5263b9	-0.20545854
34	0xbe32354c	-0.17403144
35	0xbe8bee11	-0.27330068
36	0xbd09970c	-0.033591315
37	0x3de7adf0	0.11312473
38	0x3e1aacf4	0.15105039
39	0xbe86fd25	-0.2636501
40	0xbe306f98	-0.1723007
41	0xbe915a0b	-0.2838901
42	0x3d74a5ec	0.059728548
43	0x3dcfec7d	0.101525284
44	0x3c6b2bd4	0.014353711
45	0x3df90d76	0.121607706
46	0x3d793805	0.06084444
47	0xbe1c59d3	-0.1526864
48	0x3d807ced	0.06273828
49	0xbe3d81f1	-0.185066
50	0xbe43d026	-0.19122371
51	0xbe032038	-0.12805259
52	0xbe449654	-0.1919797
53	0x3ce10e90	0.027472764
54	0x3d84cfe1	0.06484962
55	0xbd88b9ba	-0.066760495
56	0xbe7c4390	-0.24635148
57	0x3d94ac1b	0.07259389
58	0x3dec830e	0.11548434
59	0xbd94c87e	-0.07264803
60	0x3cab1648	0.020884648
61	0x3e625301	0.22101976
62	0x3df0973f	0.11747598
63	0xbe091b3a	-0.13389292
64	0xbd5ae79c	-0.053443536
65	0x3d9ee273	0.077580355
66	0xbd336c35	-0.043804366
67	0x3db78a37	0.08961909
68	0x3f1f2b86	0.62175786
69	0xbcf12a66	-0.029439162
70	0x3c4e0432	0.012574242
71	0x3d0fef15	0.035140116

encoder.0.bias f4 [8]
0	0xbdf440b0	-0.11926401
1	0xbe4c375a	-0.1994299
2	0x3e16c8f2	0.14725092
3	0x3e403383	0.1876965
4	0xbe56e8dc	-0.20987266
5	0x3e00c041	0.12573339
6	0xbe3a3d46	-0.18187436
7	0x3dd52883	0.104081176

encoder.3.weight f4 [16, 8, 3, 3]
0	0xbea26f94	-0.31725752
1	0xbefc0fa7	-0.49230692
2	0xbee7675c	-0.45196044
3	0xbe5686d6	-0.20949873
4	0xbe8d584b	-0.27606425
5	0xbe8f6195	-0.28004137
6	0xbdc6346a	-0.09677966
7	0xbdb5872b	-0.08863672
8	0xbd978cb1	-0.07399882
9	0x3d8e8589	0.069590636
10	0x3e370609	0.17873396
11	0x3e85e6e6	0.26152724
12	0x3c00ba37	0.007856897
13	0x3ce429da	0.027851988
14	0x3da8f16f	0.08249175
15	0x3a0327e1	0.0005003196
16	0xbd2b2400	-0.04178238
17	0xbdb88ce6	-0.09011249
18	0x3d8955fc	0.06705853
19	0x3e4734f3	0.19453792
20	0x3e114a81	0.14188577
21	0x3daad236	0.08340876
22	0x3e01ed4f	0.12688182
23	0x3e3e1ba9	0.18565239
24	0x3d1cfca8	0.03832689
25	0xbd03ea87	-0.032206085
26	0xbbcec8f2	-0.0063105756
27	0x3d4ed8d2	0.050499745
28	0x3b65b7ea	0.0035052248
29	0x3c508f63	0.012729499
30	0x3c891fcf	0.0167388
31	0x3d71814d	0.0589612
32	0x389e817a	7.558144e-05
33	0xbddca68e	-0.10773955
34	0xbbeafb40	-0.0071710646
35	0x3d26c0c9	0.040711198
36	0xbda4c099	-0.080445476
37	0xbebc9eb5	-0.36839834
38	0xbec45f06	-0.38353747
39	0xbd93e701	-0.07221795
40	0xbe11cbf1	-0.14237954
41	0xbe5c75fd	-0.21529384
42	0xbe0d9109	-0.13824858
43	0xbd5d9239	-0.054094527
44	0xbddcfe51	-0.107906945
45	0xbe1f46d8	-0.15554368
46	0xbe8aaf0a	-0.2708667
47	0xbe9f24f7	-0.3108289
48	0xbd408502	-0.047001846
49	0xbded4a4a	-0.11586435
50	0xbe6a071a	-0.22854272
51	0x3e34f9a3	0.17673354
52	0xbd0bfdb8	-0.034177512
53	0xbe354ae5	-0.17704351
54	0xbc211927	-0.009832657
55	0x3d214a71	0.039377633
56	0x3db09b10	0.08623326
57	0xbdd1f578	-0.102518976
58	0xbe0d5beb	-0.13804595
59	0xbd793a10	-0.06084639
60	0xbdc78093	-0.097413205
61	0xbcec95f0	-0.02888009
62	0x3d0e6b7a	0.034770466
63	0x3e66378a	0.22482124
64	0x3e655fe8	0.22399867
65	0x3e258f23	0.16167884
66	0x3dd763d9	0.10517091
67	0x3e2d8ea6	0.16948947
68	0xbbbe68cb	-0.005810832
69	0xbdae933a	-0.08524175
70	0xbdcbf997	-0.09959715
71	0xbddabcfa	-0.10680576
72	0x3b5e2fcb	0.0033902999
73	0xbe0e39bc	-0.13889211
74	0xbc8facb5	-0.017538408
75	0xbe817dca	-0.25291282
76	0xbe85639a	-0.26052552
77	0xbe2ecd03	-0.17070393
78	0xbdcff208	-0.10153586
79	0xbe96f291	-0.29481938
80	0xbe7922dc	-0.24329704
81	0x3d84506d	0.064606525
82	0x3d3dca1f	0.046335336
83	0xbbe18b73	-0.0068830787
84	0x3c928b26	0.017888617
85	0x3c1ddc49	0.00963504
86	0xbc1fdb40	-0.009756863
87	0x3d454fac	0.048171684
88	0x3e1bc90f	0.15213417
89	0x3e12ac2b	0.1432349
90	0x3d0e58c1	0.03475261
91	0x3df2fb80	0.11864376
92	0x3e1c36ec	0.15255326
93	0xbda6c84c	-0.08143672
94	0xbca2d638	-0.019877538
95	0xbc963432	-0.018335436
96	0xbdbadebe	-0.09124516
97	0xbde5dadc	-0.11223385
98	0xbd3531f4	-0.044237092
99	0xbda302e8	-0.07959539
100	0xbe21a300	-0.15784836
101	0xbdea3a5e	-0.11436914
102	0x3d1b4f3f	0.03791737
103	0xbe0ad2dc	-0.13556999
104	0xbe757b18	-0.23972738
105	0xbda4c040	-0.08044481
106	0xbda95390	-0.082678914
107	0xbd376136	-0.044770442
108	0xbd86ddbe	-0.06585263
109	0xbe318f89	-0.1733991
110	0xbd857ecc	-0.06518325
111	0xbd18ae10	-0.037275374
112	0xbe8a51cc	-0.2701553
113	0xbe0f8b9e	-0.14018103
114	0xbdaaee8b	-0.0834628
115	0xbe4906f3	-0.19631557
116	0xbe345dd8	-0.17613924
117	0xbdd9b9c7	-0.10631137
118	0xbd49f82f	-0.049308952
119	0x3c7ad8c8	0.015310474
120	0xbeaf7ffd	-0.34277335
121	0xbeb5c1fe	-0.35499567
122	0xbe3255f4	-0.17415601
123	0xbee92c87	-0.45541784
124	0xbeb35ce0	-0.35031796
125	0xbecc852a	-0.39945346
126	0x3cdb6c55	0.026785055
127	0xbcbc8b2f	-0.023015587
128	0xbdb13a98	-0.08653754
129	0x3e0c0e12	0.13677242
130	0x3e30dc06	0.17271432
131	0x3d96b911	0.07359517
132	0x3e66e3f7	0.22547899
133	0x3e81b9d1	0.2533708
134	0x3e2dedd2	0.16985252
135	0x3d082e62	0.03324736
136	0xbbdccb39	-0.006738093
137	0xbd414440	-0.04718423
138	0xbca1670a	-0.019702453
139	0x3d786bd6	0.060649715
140	0xbd8a14bd	-0.06742237
141	0x3e348391	0.17628314
142	0x3e2d3aeb	0.16917007
143	0xbd2295ec	-0.039693758
144	0xbdfcf653	-0.1235167
145	0x3c7a31bf	0.015270649
146	0x3db556a8	0.08854419
147	0xbe38ceba	-0.1804761
148	0x3d8194de	0.06327222
149	0x3de8da09	0.11369712
150	0xbcad8fcc	-0.021186732
151	0x3cd013f7	0.025400145
152	0x3e1e11b2	0.15436438
153	0xbd3a03d3	-0.045413803
154	0x3b9560b3	0.0045586466
155	0xbd791d8d	-0.060819197
156	0x3d6d65a6	0.057958268
157	0x3e0fa6e9	0.14028515
158	0xbc91e375	-0.017808655
159	0x3de4dd2f	0.11175
160	0x3e12c63e	0.14333436
161	0xbc32a106	-0.010902649
162	0xbdd39866	-0.10331802
163	0x3d746682	0.05966807
164	0x3e50a9be	0.20377252
165	0xbe1d8872	-0.15384081
166	0xbcc0fefd	-0.023559088
167	0x3de83dcd	0.113399126
168	0xbcdc2286	-0.02687193
169	0x3c2467a7	0.010034478
170	0xbd5be5d8	-0.053685993
171	0xbece4cfe	-0.40293115
172	0xbe223c9f	-0.15843438
173	0xbc102770	-0.008798465
174	0xbe97a9dc	-0.2962178
175	0xbde920bd	-0.113831975
176	0x3d08b299	0.03337345
177	0xbe4c9f99	-0.19982757
178	0xbdebe1df	-0.11517691
179	0xbcf9cb68	-0.0304925
180	0xbec21818	-0.37909007
181	0xbeac3d94	-0.3364073
182	0xbe156c8c	-0.14592189
183	0xbe55424e	-0.20826074
184	0xbd2934ef	-0.041310247
185	0x3c13d1a0	0.009022146
186	0xbea749c0	-0.32673454
187	0xbe0147e3	-0.12625079
188	0x3d4f14d6	0.05055698
189	0xbcf04e25	-0.029334137
190	0xbc8aa514	-0.016924419
191	0x3dbc3b7d	0.09191034
192	0xbe4b6b75	-0.1986521
193	0xbd6e32c4	-0.058153883
194	0xbc329cf7	-0.010901681
195	0xbe3358c6	-0.17514333
196	0xbc197985	-0.009367351
197	0xbcfb74bd	-0.030695314
198	0x3cdd7faa	0.027038414
199	0x3cb15bd6	0.021650236
200	0xbe8343ef	-0.25637767
201	0x3d1fb9d8	0.038995594
202	0x3daa2131	0.08307112
203	0xbc87dae9	-0.016583877
204	0xbc623605	-0.013806825
205	0x3e0a1098	0.13482893
206	0x3e1e0815	0.1543277
207	0x3d8ba4cc	0.06818542
208	0x3ca33aa2	0.01992542
209	0xbda663ae	-0.08124481
210	0x3de5a8e2	0.112138525
211	0xbd335ca1	-0.04378951
212	0xbe60ecf9	-0.21965398
213	0x3e1e46e6	0.15456733
214	0x3b0e17bc	0.0021681627
215	0xbea88a95	-0.3291823
216	0x3de83b8c	0.11339483
217	0xbd7e6bf1	-0.06211466
218	0xbe16e608	-0.14736187
219	0xbdc5784e	-0.09642087
220	0xbdb67257	-0.08908527
221	0xbee90f09	-0.45519283
222	0x3d9958f0	0.074876666
223	0xbe0d0bf9	-0.13774098
224	0xbe155094	-0.1458152
225	0xbd102538	-0.035191745
226	0xbd84b789	-0.06480319
227	0xbcc837fb	-0.024440756
228	0xbe11efc8	-0.14251626
229	0xbdbf057d	-0.09327219
230	0xbcb2d134	-0.021828271
231	0xbe540dbb	-0.20708363
232	0xbd82f19a	-0.06393738
233	0x3da39bef	0.07988726
234	0x3d929274	0.0715684
235	0x3dcb2214	0.09918609
236	0x3d293e60	0.04131925
237	0x3c7c49bd	0.01539844
238	0x3daf2ba4	0.08553246
239	0x3e3adcfa	0.18248358
240	0x3c6e1377	0.014531008
241	0xbd73760c	-0.05943875
242	0x3ca39927	0.01997049
243	0x3cef8979	0.029240357
244	0xbd7585ff	-0.05994224
245	0xbdbbaadf	-0.091634504
246	0xbdb4abda	-0.088218406
247	0xbe219fb0	-0.15783572
248	0xbe79067e	-0.24318883
249	0xbc9fc881	-0.019504787
250	0xbe478867	-0.19485627
251	0xbe871fed	-0.26391545
252	0x3de09aab	0.109670006
253	0x3d377517	0.0447894
254	0xbd72f63a	-0.05931685
255	0xbc840378	-0.016114935

encoder.3.bias f4 [16]
0	0x3dfc2d56	0.12313335
1	0x3e164b76	0.14677224
2	0x3d50dbc9	0.050990853
3	0x3e5d3085	0.2160054
4	0xbe178bfb	-0.14799492
5	0xbe71f47b	-0.23628418
6	0xbd63d871	-0.055626336
7	0x3e556d0b	0.20842378
8	0x3e0923a2	0.13392499
9	0xbe2c5845	-0.16830547
10	0xbe0f570d	-0.13998051
11	0x3de326e4	0.11091402
12	0x3d723194	0.059129313
13	0xbde0feaf	-0.10986077
14	0x3bbe37e4	0.0058050025
15	0xbdb68b1a	-0.0891325

encoder.6.weight f4 [32, 16, 3, 3]
0	0xbdc90d00	-0.09816933
1	0x3d05893b	0.032601576
2	0xbe19151c	-0.14949459
3	0x3d922d21	0.07137514
4	0xbe1942aa	-0.14966837
5	0xbc8c29a0	-0.017109692
6	0xbda535f7	-0.080669336
7	0x3e04d363	0.12971263
8	0x3e345541	0.17610647
9	0x3d5c2fd9	0.05375657
10	0xbde91998	-0.11381835
11	0xbe41a1a7	-0.18909322
12	0xbd95312b	-0.07284769
13	0xbd69852c	-0.05701177
14	0x3dbb03c6	0.09131579
15	0x3d518d08	0.05115989
16	0x3d94ade5	0.0725973
17	0xbda769be	-0.081744656
18	0xbc8d0bea	-0.017217595
19	0xbd02155d	-0.031758655
20	0xbe55d3f8	-0.20881641
21	0xbe2fffdb	-0.17187445
22	0x3da9beb0	0.08288324
23	0x3d490f76	0.04908701
24	0xbdbd5db3	-0.09246387
25	0x3d9d892a	0.076921776
26	0x3e4dbea8	0.20092261
27	0xbd2f86f0	-0.042853296
28	0xbdbbca91	-0.09169496
29	0x3d523d57	0.05132803
30	0xbcd19ef1	-0.025588484
31	0x3eaf7d69	0.34275368
32	0x3dc9afac	0.0984796
33	0x3e0ca30e	0.13734075
34	0x3e801f47	0.25023863
35	0xbe505813	-0.20346098
36	0x3c8884fe	0.016664978
37	0xbe83b84f	-0.25726554
38	0xbd6a0c04	-0.057140365
39	0xbdbd40d4	-0.092408806
40	0x3e5a27c5	0.21304233
41	0x3e83aeda	0.2571934
42	0x3ddbb806	0.10728459
43	0x3da41a67	0.08012848
44	0xbe348079	-0.17627133
45	0xbd4f64a5	-0.05063309
46	0xbdd74fa4	-0.10513237
47	0xbe471bf1	-0.19444253
48	0x3cb757d4	0.022380747
49	0x3bfb5cd5	0.0076709785
50	0x3dbd98a4	0.092576295
51	0xbdf0cec3	-0.11758187
52	0xbc97770b	-0.018489381
53	0x3d2a92a3	0.04164375
54	0xbcdac2b8	-0.026704177
55	0xbe530081	-0.20605661
56	0xbe024b0c	-0.1272394
57	0xbd97fe4b	-0.074215494
58	0x3d3129c8	0.043252736
59	0x3de1ba42	0.11021854
60	0x3d2747ec	0.040840074
61	0xbad12033	-0.0015955031
62	0xbe06934e	-0.1314213
63	0xbddd53a5	-0.108069696
64	0xbd87098f	-0.0659362
65	0xbe01374f	-0.12618755
66	0x3cbdf2f5	0.02318714
67	0x3ba4d269	0.0050299657
68	0x3e16104e	0.14654657
69	0xbdbe79a7	-0.09300547
70	0x3e7411e0	0.23834944
71	0x3d5006cd	0.050787736
72	0xbd9eca6c	-0.07753453
73	0xbd486fed	-0.048934866
74	0x3c009fd7	0.007850609
75	0x3ce93be5	0.028470943
76	0xbdb31be8	-0.08745557
77	0xbb9e7869	-0.0048361314
78	0x3d057a82	0.032587536
79	0x3da910c6	0.082551524
80	0x3e243578	0.16036022
81	0x3ca61760	0.020274818
82	0xbd810b6f	-0.06301009
83	0xbe573770	-0.21017241
84	0x3d188fcd	0.037246514
85	0x3ba97004	0.005170824
86	0x3d901394	0.07034984
87	0x3d362d0b	0.04447655
88	0x3e417537	0.1889237
89	0x3d99afa3	0.07504203
90	0xbe176115	-0.14783128
91	0x3e3e3b58	0.18577325
92	0x3d22a55d	0.039708484
93	0x3ca41d02	0.020033363
94	0x3d33c6f2	0.0438909
95	0xbdd0f4c3	-0.102029346
96	0xbc99e01f	-0.018783627
97	0x3d884bc4	0.06655076
98	0x3e695195	0.22785027
99	0x3dc90a94	0.09816471
100	0xbe2f3a3f	-0.17112063
101	0xbd23a66a	-0.039953627
102	0xbe1a8562	-0.15089944
103	0x3db8c20f	0.09021389
104	0x3dc1b5a9	0.09458477
105	0xbd31eb14	-0.04343708
106	0xbd433768	-0.04766026
107	0xbced1176	-0.02893899
108	0xbd017af5	-0.0316114
109	0xbd807191	-0.06271661
110	0xbde432c8	-0.11142498
111	0x3d16ebde	0.036846034
112	0x3d4add76	0.049527608
113	0x3e34c0b1	0.17651631
114	0x3d6e66d3	0.05820353
115	0x3e7bd79e	0.2459397
116	0x3e40acae	0.18815872
117	0x3d105375	0.03523584
118	0x3e9c94a7	0.30582163
119	0x3e83f3d2	0.25771958
120	0x3b92f2a0	0.0044844896
121	0xba587667	-0.00082573894
122	0x3caf960b	0.02143385
123	0xbcc198d6	-0.023632448
124	0xbde70946	-0.11281066
125	0x3ddc34c0	0.10752249
126	0xbd06a24b	-0.03286962
127	0x3e5b89e6	0.21439323
128	0x3eb5b618	0.3549049
129	0xbbbb8ec9	-0.0057238084
130	0x3e4235af	0.18965791
131	0x3d8df185	0.06930832
132	0x3dfe4ef2	0.124174014
133	0xbd20943b	-0.039203864
134	0xbb9cd9ff	-0.0047867293
135	0xbe3e6f05	-0.18597038
136	0xbd24331a	-0.040087797
137	0x3d3088a6	0.043099068
138	0xbd16373a	-0.036673762
139	0x3d7288a3	0.05921234
140	0xbcb4a17c	-0.022049658
141	0x3d86459c	0.06556246
142	0x3e75f713	0.24020033
143	0x3e9ae6b6	0.30254143
144	0x3d50ad58	0.050946563
145	0x3cb0104e	0.02149215
146	0x3cac7b7a	0.021054972
147	0xbd499c96	-0.049221598
148	0x3da17f47	0.07885604
149	0x3c4b084a	0.012392113
150	0xbd532e80	-0.051558018
151	0x3e56182e	0.20907661
152	0xbdb26ad1	-0.0871178
153	0xbd9f6cfc	-0.07784459
154	0xbd6547ee	-0.0559768
155	0xbd91b5ae	-0.07114731
156	0xbda33933	-0.07969894
157	0x3e9f414a	0.311045
158	0x3d5dbc4a	0.054134645
159	0x3b8487e6	0.0040445207
160	0x3dacc44e	0.0843588
161	0xbcfe8260	-0.031068027
162	0xbd03fc6e	-0.032223158
163	0xbc54c802	-0.012987139
164	0xbdc80e2d	-0.09768329
165	0xbd4dfac8	-0.05028799
166	0x3e41c61a	0.18923226
167	0x3dae6430	0.08515203
168	0xbe78e925	-0.24307688
169	0x3e8ad085	0.27112213
170	0x3cfd5b64	0.030927368
171	0x3d27bd97	0.04095229
172	0xbd965cd8	-0.07341927
173	0x3d192475	0.037388284
174	0x3e96aa64	0.29426873
175	0x3db14cb7	0.0865721
176	0xbdcb4069	-0.09924395
177	0x3e08236b	0.13294761
178	0xbd81c3e7	-0.063361935
179	0xbe932a30	-0.28743124
180	0xbcddaad0	-0.027058989
181	0x3c69e805	0.014276509
182	0xbdd5bb62	-0.10436131
183	0x3e2f24e1	0.17103912
184	0x3e4d5b5e	0.20054385
185	0xbe4e7933	-0.20163421
186	0x3e896e17	0.26841804
187	0x3d022ef6	0.031783067
188	0x3dd2d4b3	0.102944754
189	0xbd125b7b	-0.035731774
190	0x3d9fffa6	0.07812433
191	0x3cda2575	0.026629189
192	0x3df8838a	0.12134464
193	0x3d695432	0.05696506
194	0xbe74d117	-0.23907886
195	0x3dead468	0.114662945
196	0x3e16de16	0.14733157
197	0x3e5b72bd	0.21430488
198	0xbd7e7902	-0.06212712
199	0xbc33ec85	-0.010981684
200	0xbd2e8298	-0.042605013
201	0x3cd9d49b	0.026590636
202	0x3e4cd3c9	0.20002665
203	0xbe03e065	-0.12878568
204	0x3d8f9911	0.07011617
205	0x3d88a836	0.06672709
206	0xbd0a5242	-0.033769853
207	0xbc8a8200	-0.016907692
208	0x3cff0100	0.031128407
209	0x3d4d5934	0.0501339
210	0x3de04a4b	0.1095167
211	0x3df23aee	0.11827646
212	0xbe2ed60c	-0.1707384
213	0x3e49436c	0.19654626
214	0x3e4b6a14	0.19864684
215	0xba655f0a	-0.00087498187
216	0x3de75ecf	0.1129738
217	0x3d0bac75	0.034100015
218	0xbdabb33c	-0.083837956
219	0xbd693bd3	-0.05694182
220	0x3c03e100	0.00804925
221	0xbc83f7f0	-0.016109437
222	0xbd8bfde3	-0.068355344
223	0x3da34c63	0.07973554
224	0xbdf2bdac	-0.11852583
225	0x3c2a20ff	0.010383843
226	0x3dbad109	0.091219015
227	0x3c967b00	0.018369198
228	0xbc590b4a	-0.01324732
229	0x3d6b19e1	0.057397727
230	0xbd9957fb	-0.07487484
231	0x3cfaa48f	0.030596046
232	0x3e4f5b32	0.20249632
233	0xbc5d8760	-0.013521045
234	0x3d64e3b3	0.055881213
235	0x3c0871b2	0.008327888
236	0x3d15c2c1	0.036562685
237	0xbdf165a1	-0.11786962
238	0xbe32469f	-0.17409752
239	0x3d094769	0.033515368
240	0x3dd54ace	0.104146585
241	0x3e33365f	0.1750121
242	0x3e0f2f72	0.13982943
243	0xbded98a9	-0.11601383
244	0xbdd83c04	-0.10558322
245	0xbbe89d82	-0.0070988545
246	0x3e1488af	0.14505266
247	0x3eaf1ad3	0.34200153
248	0xbcd51375	-0.026010254
249	0xbd39353b	-0.04521678
250	0x3d405c01	0.04696274
251	0x3e9790e2	0.29602724
252	0x3d6fdf6b	0.058562677
253	0x3dc8adc3	0.097987674
254	0x3d1c4382	0.038150318
255	0xbd30e461	-0.04318655

encoder.6.bias f4 [32]
0	0x3cd0a911	0.025471242
1	0x3dfd40bf	0.12365865
2	0xbdc2fd9e	-0.0952103
3	0x3cea1339	0.02857362
4	0xbd6a69c5	-0.057229776
5	0x3e4c08b0	0.19925189
6	0x3ddd84ea	0.10816367
7	0xbbe9ea9b	-0.007138563
8	0xbe48e816	-0.19619784
9	0xbdaef622	-0.0854304
10	0x3d9a9cfa	0.07549472
11	0x3cce8f2c	0.025214754
12	0x3cc79d3d	0.02436697
13	0xbd7a42d1	-0.061098877
14	0x3e62dfef	0.22155736
15	0x3dcd7dd3	0.10033765
16	0x3e8e7828	0.27826047
17	0xbd3d8b0c	-0.046275184
18	0xbde57183	-0.11203291
19	0x3e8b1085	0.2716104
20	0x3d856dc1	0.065150745
21	0x3e48fc75	0.19627555
22	0xbd8d371e	-0.068952784
23	0x3e534713	0.20632581
24	0x3dd05308	0.10172087
25	0x3d86f809	0.06590278
26	0x3db1f277	0.086888246
27	0xbe2b3528	-0.16719496
28	0x3da1143a	0.07865186
29	0xbe23a9c8	-0.15982735
30	0x3e24b52e	0.1608474
31	0xbd77a61a	-0.06046114

bottle_neck.0.conv_block.1.weight f4 [32, 32, 3, 3]
0	0xbdb7b54a	-0.08970125
1	0xbcfc8d2e	-0.030829038
2	0xbe5e1019	-0.21685828
3	0xbdd06796	-0.101760074
4	0xbc9406ea	-0.018069703
5	0xbd854517	-0.065073185
6	0xbe0e7797	-0.13912807
7	0xbe0b24d5	-0.13588269
8	0xbc412ae8	-0.011790015
9	0x3d2654da	0.040608265
10	0x3dbf91c0	0.093539715
11	0xbe5daefd	-0.21648784
12	0xbd517d2b	-0.05114476
13	0xbde2e8db	-0.1107957
14	0xbd93bf74	-0.07214251
15	0x3df1699f	0.11787724
16	0x3db8a014	0.090149075
17	0xbd954d61	-0.072901495
18	0x3e809fd9	0.25121954
19	0x3dd3e9f8	0.103473604
20	0x3d65923a	0.056047656
21	0x3dd6abe5	0.10482005
22	0x3e66f1a0	0.2255311
23	0x3de4fdf5	0.11181251
24	0x3e4c75ec	0.19966859
25	0x3d9278f3	0.071519755
26	0x3e2a8cd6	0.16655287
27	0xbc263536	-0.010144522
28	0x3e09a01f	0.13439988
29	0x3dbb8cd1	0.09157718
30	0x3e384100	0.17993546
31	0x3e49d384	0.19709593
32	0x3e5ad15e	0.2136893
33	0x3e3e7d4d	0.18602486
34	0x3e57f97f	0.21091269
35	0x3db3aca3	0.08773162
36	0xbdc8307f	-0.09774875
37	0x3e5a4b1a	0.21317711
38	0x3e997bd6	0.29977292
39	0x3e56e795	0.20986779
40	0x3e54cb89	0.20780768
41	0x3e0cd154	0.13751727
42	0xbc11caf6	-0.008898487
43	0x3e158b84	0.14604002
44	0xbe325041	-0.17413427
45	0x3d8c4086	0.06848244
46	0x3dda3729	0.10655052
47	0xbdd18c3c	-0.10231826
48	0x3d2597b9	0.040427897
49	0x3d1caa7d	0.038248528
50	0xbe65c3c0	-0.22437954
51	0x3dc6afdd	0.09701512
52	0x3e0667d6	0.13125548
53	0x3d26e3c4	0.040744558
54	0x3e172960	0.14761877
55	0xbd0903d5	-0.03345092
56	0x3d85710a	0.06515701
57	0xbd89083d	-0.066910245
58	0x3bc050f2	0.0058690244
59	0x3e4db129	0.20087112
60	0x3e1488c3	0.14505295
61	0x3d39f542	0.04539991
62	0xbd8a29f1	-0.06746281
63	0x3e4e2e9c	0.20134968
64	0x3dc76de3	0.09737756
65	0xbd7bddb9	-0.061490748
66	0x3e339fc4	0.17541414
67	0xbced86c8	-0.028994933
68	0x3def1690	0.11674225
69	0xbc613584	-0.013745669
70	0xbe765038	-0.24054039
71	0xbdf1565e	-0.11784051
72	0x3e970458	0.29495502
73	0x3de83042	0.113373294
74	0x3dfe976a	0.12431224
75	0x3e579af8	0.2105521
76	0x3a5e6385	0.00084834575
77	0x3e00727d	0.12543674
78	0x3c98ab90	0.018636495
79	0xbdcd7ee0	-0.10033965
80	0xbd9de5b4	-0.07709828
81	0x3d296d5c	0.04136406
82	0x3ac05eee	0.0014676729
83	0xbd54e8a5	-0.05197968
84	0x3daff3a6	0.08591394
85	0x3e5dde28	0.21666777
86	0x3c77047a	0.015076751
87	0xbd1bedf8	-0.03806874
88	0x3d8feb66	0.070273206
89	0xbe1fa8d5	-0.15591748
90	0x3cd4b3d7	0.02596466
91	0xbd028756	-0.031867348
92	0xbe5bcb33	-0.21464233
93	0x3e0564ec	0.1302678
94	0xbc6ec86b	-0.014574151
95	0xbdc3dec0	-0.095639706
96	0x3d7fa14d	0.062409688
97	0xbd79c361	-0.060977343
98	0xbc865016	-0.01639561
99	0xbc77d116	-0.015125534
100	0xbe8be05a	-0.27319604
101	0x3dd993a5	0.10623864
102	0xbdbc0792	-0.091811314
103	0x3d1f0e69	0.038832102
104	0x3dfc438f	0.12317573
105	0xbd905f98	-0.07049483
106	0xbd9294b4	-0.07157269
107	0xbd82cbc6	-0.06386523
108	0x3e0c40ff	0.13696669
109	0x3a0c39e3	0.0005349202
110	0xbe15eeec	-0.14641923
111	0x3d80daa3	0.06291702
112	0x3b96c74a	0.004601394
113	0x3e06b650	0.13155484
114	0xbcda6af8	-0.026662335
115	0xbe5920d1	-0.21203925
116	0xbdbfbb9a	-0.09361954
117	0x3e1a08ed	0.15042467
118	0x3dfd6f48	0.12374741
119	0xbe1df62a	-0.15425935
120	0xbd0e0621	-0.034673814
121	0x3d45f6ab	0.048330944
122	0xbde4348e	-0.111428365
123	0xbc3bf4fd	-0.011471984
124	0xbd9d6811	-0.07685865
125	0x3ddd3215	0.10800568
126	0xbe1655d8	-0.14681184
127	0x3d858b00	0.06520653
128	0x3e2ee60b	0.17079942
129	0xbdf2c941	-0.118547924
130	0xbd89aae5	-0.06722049
131	0xbe041b56	-0.12901053
132	0xbe05ab10	-0.13053536
133	0x3dbb0c7f	0.09133243
134	0xbdbcdd8a	-0.09221943
135	0xbc35bcc8	-0.011092372
136	0xbd759ce5	-0.05996408
137	0xbe84442b	-0.25833258
138	0xbced553d	-0.028971309
139	0xbe449ee2	-0.19201234
140	0x3cdbf827	0.026851727
141	0x3e411cc3	0.18858628
142	0x3b0eb75e	0.0021776776
143	0x3e07c619	0.13259162
144	0x3e276ed4	0.16350871
145	0x3d18e063	0.037323367
146	0x3e02db4a	0.12778965
147	0x3e039bb6	0.12852368
148	0x3db2ab8e	0.08724128
149	0x3de75b33	0.11296692
150	0x3e4ee9c4	0.20206362
151	0x3e39a961	0.18131019
152	0x3e3a4c78	0.18193233
153	0xbd663601	-0.056203846
154	0x3a53bfab	0.0008077572
155	0xbee5ce8d	-0.44884148
156	0x3cd7286c	0.026264392
157	0xbe154bba	-0.14579669
158	0x3a539be8	0.0008072243
159	0xbdfafe3b	-0.12255522
160	0xbdc7c5a4	-0.09754494
161	0x3c371e21	0.011176617
162	0xbd88be84	-0.06676963
163	0x3d3a42ac	0.04547374
164	0xbe3915d8	-0.18074739
165	0x3d85a514	0.06525627
166	0x3d1ded71	0.03855652
167	0xbd3648d6	-0.044503056
168	0x3dc0f7dd	0.09422276
169	0xbd7badc7	-0.061445024
170	0x3db1ee31	0.086880095
171	0x3d17eda9	0.037091885
172	0x3da25f2e	0.0792831
173	0xbded8832	-0.11598243
174	0x3e376226	0.17908534
175	0xbe9a5d28	-0.30149198
176	0x3d717492	0.05894906
177	0xbd65bccf	-0.056088265
178	0xbb8b2e43	-0.004247458
179	0x3d1c3802	0.03813935
180	0x3e52a801	0.20571901
181	0x3da98139	0.082766004
182	0xbd37fc90	-0.044918597
183	0x3e2675aa	0.16255823
184	0x3e48bf98	0.19604337
185	0x3d9c795c	0.07640335
186	0x3db1ff61	0.08691288
187	0xbd0c88df	-0.034310218
188	0x3cb67054	0.02227036
189	0xbe26b90c	-0.16281527
190	0xbe2dc084	-0.1696797
191	0x3e423c32	0.18968275
192	0xbc74a877	-0.014932743
193	0x3e68abf5	0.22721846
194	0xbe1ff6d6	-0.15621504
195	0xbe34d87c	-0.17660707
196	0xbd782e57	-0.060591068
197	0xbe94455a	-0.2895916
198	0xbdcb5fc3	-0.099303745
199	0xbda10cb4	-0.07863751
200	0x3dd222b0	0.10260522
201	0xbe5aa380	-0.21351433
202	0xbd8f7ca0	-0.07006192
203	0x3dcf6c7f	0.10128116
204	0x3dda6421	0.10663629
205	0x3ded9539	0.116007276
206	0xbde01352	-0.10941185
207	0x3e18faa3	0.1493936
208	0x3dfae212	0.12250151
209	0x3e87a7fd	0.26495352
210	0x3dd54ed3	0.10415425
211	0x3e204c17	0.15654026
212	0x3e20264c	0.15639609
213	0xbd189ebf	-0.037260767
214	0x3e0e721e	0.1391072
215	0xbd900861	-0.07032848
216	0xbc77b1e7	-0.015118099
217	0x3d0d2d7e	0.034467213
218	0xbe095ca2	-0.13414243
219	0xbe0dd2fa	-0.13850012
220	0xbd6e2ced	-0.058148313
221	0xbda81ac1	-0.08208228
222	0x3dc662fa	0.09686847
223	0x3e4a3dae	0.19750091
224	0x3dd66357	0.10468166
225	0x3dc2d356	0.095129654
226	0xbc73431c	-0.014847543
227	0x3e47ec55	0.19523747
228	0x3e21fef5	0.15819915
229	0x3dee0e52	0.11623825
230	0x3cb49ea5	0.022048304
231	0x3c21b504	0.009869818
232	0x3dc06d4d	0.093958475
233	0xbdbe6bb4	-0.092978865
234	0xbccc6aa1	-0.024953188
235	0xbe3991b4	-0.18121988
236	0x3e10890d	0.1411478
237	0x3d86dce6	0.06585102
238	0x3e6206af	0.22072862
239	0x3d175c1b	0.036953073
240	0x3e17b223	0.14814048
241	0xbd4c34f7	-0.0498552
242	0x3e1a1293	0.15046148
243	0xbe8e5765	-0.27801052
244	0x3c573664	0.013135526
245	0x3e6a9900	0.22909927
246	0xbe221ff1	-0.15832497
247	0xbd96f5fb	-0.07371136
248	0x3d3d5147	0.04622009
249	0x3d01d424	0.031696454
250	0x3cab4162	0.0209052
251	0xbe8db953	-0.27680454
252	0xbd3e04dc	-0.046391353
253	0x3d6382dc	0.05554472
254	0xbd4e70b2	-0.050400443
255	0x3d99205f	0.074768774

bottle_neck.0.conv_block.2.weight f4 [32]
0	0x3f58c678	0.8467784
1	0x3f6bdf23	0.92137355
2	0x3f870282	1.054764
3	0x3f83c6cc	1.0295043
4	0x3f5514bc	0.83234763
5	0x3f7cb956	0.987203
6	0x3f8cabc6	1.0989921
7	0x3f8510b3	1.0395721
8	0x3f5be5e5	0.85897666
9	0x3f6a0930	0.9142027
10	0x3f94ded0	1.1630497
11	0x3f4dc466	0.80377805
12	0x3f5f5b06	0.87248266
13	0x3f7b789f	0.9823093
14	0x3f7d2c2d	0.9889553
15	0x3f53dbf5	0.827575
16	0x3f6219f2	0.8832084
17	0x3f80a868	1.0051394
18	0x3f8147e8	1.0100069
19	0x3f59b786	0.8504566
20	0x3f78ffc0	0.97265244
21	0x3f522953	0.82094306
22	0x3f7db819	0.99109036
23	0x3f8caf8e	1.0991075
24	0x3f8d33a6	1.1031387
25	0x3f9a8979	1.2073203
26	0x3f836a4b	1.0266813
27	0x3f888bc1	1.066765
28	0x3f7dee81	0.99192053
29	0x3f770247	0.9648785
30	0x3f81744c	1.0113616
31	0x3f5a9600	0.8538513

bottle_neck.0.conv_block.2.bias f4 [32]
0	0xbe2988a5	-0.16556032
1	0xbeb92a31	-0.36165002
2	0xbe8b3349	-0.27187565
3	0xbe7ff591	-0.2499602
4	0xbec8d440	-0.39224434
5	0xbe72ce00	-0.23711395
6	0xbe5efb6d	-0.21775599
7	0xbd364d9d	-0.04450761
8	0xbecd0912	-0.40045983
9	0xbebd7f6c	-0.37011278
10	0xbe77ad11	-0.24187113
11	0xbea0ed2d	-0.3143095
12	0xbe4738d3	-0.1945527
13	0xbe881c6d	-0.26584187
14	0xbe7c2873	-0.24624805
15	0xbe80a71d	-0.25127497
16	0xbe8ca8f3	-0.27472648
17	0xbeb0de6b	-0.3454469
18	0xbe380755	-0.17971547
19	0xbe5e4c48	-0.21708786
20	0xbf0866ce	-0.5328187
21	0xbecda787	-0.40166876
22	0xbdc65c8c	-0.09685621
23	0xbe8e20e8	-0.2775948
24	0xbebdb548	-0.3705237
25	0xbe9491fe	-0.29017633
26	0xbe323f9f	-0.17407082
27	0xbe50d3be	-0.20393273
28	0xbeb3382a	-0.35003787
29	0xbe0b669b	-0.1361336
30	0xbecf4a9b	-0.40486607
31	0xbe81e516	-0.2537009

bottle_neck.0.conv_block.2.running_mean f4 [32]
0	0x3f823d87	1.0175027
1	0xc02133f0	-2.518795
2	0x3e8fb529	0.28067902
3	0xbf2c76ad	-0.67368585
4	0x3e5cad76	0.21550545
5	0x3fb0e11e	1.38187
6	0xbff4299e	-1.90752
7	0xbf3419c7	-0.70351833
8	0x3fc7b412	1.5601828
9	0x3e6e7c64	0.23289639
10	0xc0a67985	-5.202334
11	0xbf265e5b	-0.64987725
12	0x3fba71f7	1.4566029
13	0xc016e943	-2.3579872
14	0xbfcb848f	-1.5899829
15	0xbfcdfc44	-1.609261
16	0xbc7fcbec	-0.015612584
17	0x3dcc86f2	0.09986676
18	0xbe3fe5a8	-0.1873995
19	0x3e533bda	0.206283
20	0xbfdb3bed	-1.7127663
21	0x3fb39f61	1.4033014
22	0xc00b80ba	-2.1797318
23	0xbf2976c5	-0.6619685
24	0xbfd007f2	-1.6252425
25	0xbf9b204f	-1.2119235
26	0xbfa73d8f	-1.3065661
27	0x3f8c4637	1.0958928
28	0xbf690efd	-0.91038495
29	0xbfab34d1	-1.3375493
30	0x3d3c215f	0.045930263
31	0xbfdada65	-1.7097899

bottle_neck.0.conv_block.2.running_var f4 [32]
0	0x4120d98d	10.053113
1	0x410ade60	8.679291
2	0x410bc12c	8.734661
3	0x41252e60	10.323822
4	0x4137ec05	11.495122
5	0x40ee1f53	7.4413238
6	0x40df0186	6.968936
7	0x410252df	8.145232
8	0x4129b005	10.6054735
9	0x40facdfc	7.8376446
10	0x4155da07	13.365729
11	0x40ee1a1c	7.440687
12	0x40f3831f	7.609756
13	0x415d4591	13.829484
14	0x41150d36	9.315725
15	0x41075043	8.457095
16	0x4107a100	8.476807
17	0x40da9ba2	6.831498
18	0x411d440c	9.829113
19	0x40c520db	6.1602607
20	0x41053418	8.325218
21	0x413f3796	11.951071
22	0x4125a76a	10.353373
23	0x40fd95c8	7.924534
24	0x411e9220	9.910675
25	0x41175e20	9.46048
26	0x4110eb0a	9.057383
27	0x40eec37b	7.4613624
28	0x40c74272	6.226861
29	0x40d407b8	6.625942
30	0x4104e10a	8.304941
31	0x4112a989	9.16639

bottle_neck.0.conv_block.5.weight f4 [32, 32, 3, 3]
0	0x3e01bb94	0.12669212
1	0xbda1bf47	-0.078978114
2	0x3e0184cb	0.12648313
3	0xbd75a9c3	-0.05997635
4	0x3ca78f5f	0.020454107
5	0x3c23514b	0.009968112
6	0xbb844fd9	-0.004037839
7	0xbd673f35	-0.056456763
8	0x3d025e34	0.03182812
9	0x3e0eeee6	0.1395832
10	0xbda5284a	-0.08064325
11	0xbda2cef7	-0.07949632
12	0xbde6038d	-0.11231146
13	0x3e26bbc5	0.16282566
14	0xbca32788	-0.01991631
15	0x3d4fb6ab	0.050711315
16	0x3e420966	0.18948898
17	0xbe078b6d	-0.1323678
18	0x3d90ac4f	0.07064115
19	0xbe7f6f9e	-0.24944922
20	0xbe4bc29b	-0.19898455
21	0x3d132b4d	0.035929967
22	0xbe31ae24	-0.17351586
23	0x3e135588	0.14388096
24	0x3de36412	0.11103071
25	0xbdaab350	-0.083349824
26	0x3d9a43ce	0.07532464
27	0x3e218429	0.15773071
28	0x3df3dd76	0.11907475
29	0xbe223462	-0.15840295
30	0xbda1d291	-0.079014905
31	0xbd3a7ead	-0.045530964
32	0xbda9e61c	-0.08295843
33	0x3d993d66	0.07482414
34	0x3d26a652	0.04068596
35	0x3d4f1c87	0.050564315
36	0xbb81eb89	-0.0039648456
37	0xbdf1937b	-0.11795708
38	0x3e889885	0.26678863
39	0xbe90888b	-0.28229174
40	0x3ac4605d	0.0014982332
41	0xbd941fe5	-0.07232646
42	0x3d2b240b	0.04178242
43	0x3dd679dc	0.104724616
44	0x3e67ee6e	0.22649547
45	0x3d473e14	0.048643187
46	0x3dd273a2	0.102759615
47	0xbe83c20f	-0.25733992
48	0xbe8655a2	-0.26237208
49	0xbe88ede4	-0.26743996
50	0x3da38605	0.079845466
51	0x3e077c00	0.13230896
52	0x3e274ffb	0.16339104
53	0x3ddc05b2	0.10743274
54	0x3d6cf3ce	0.057849698
55	0x3da81888	0.08207804
56	0xbc354496	-0.011063715
57	0x3c8ad26d	0.016946042
58	0x3d7ed131	0.06221122
59	0xbd29a535	-0.04141732
60	0xbdc99c1e	-0.0984423
61	0xbddb1ba0	-0.106986284
62	0xbd71f046	-0.059067033
63	0xbcb86880	-0.022510767
64	0xbc93bef5	-0.018035391
65	0x3bbefead	0.0058286996
66	0xbd4345e8	-0.04767409
67	0x3e3a4716	0.1819118
68	0xbd98c863	-0.07460096
69	0x3ce406af	0.027835218
70	0x3d3347b2	0.043769546
71	0x3d64cddc	0.055860385
72	0xbe26da7f	-0.16294287
73	0xbd4ea2f9	-0.05044839
74	0x3e88578e	0.266293
75	0xbdae25ef	-0.08503329
76	0x3e4ec87e	0.20193669
77	0x3d9f14d3	0.07767644
78	0xbe6084e8	-0.219257
79	0x3cf8aae1	0.030354919
80	0xbe0263f1	-0.12733437
81	0x3d6e57a6	0.058189057
82	0xbdb4180d	-0.0879365
83	0xbe88355f	-0.2660322
84	0xbdfdfcc3	-0.12401726
85	0x3e3fc839	0.18728723
86	0xbe415346	-0.18879423
87	0x3dd74065	0.10510329
88	0x3d9cd594	0.07657924
89	0x3dc2f149	0.09518678
90	0xbc31ab77	-0.010844103
91	0xbd0d744f	-0.03453475
92	0xbd4066af	-0.046972927
93	0x3e2e8b28	0.17045271
94	0xbe4644c0	-0.19362164
95	0xbd4f9cba	-0.050686575
96	0x3e07933c	0.13239759
97	0x3da2b5ce	0.07944833
98	0x3e62c4f1	0.2214544
99	0x3d87dc65	0.06633834
100	0x3de00821	0.109390505
101	0xbbcf68f5	-0.0063296505
102	0x3e32a7bc	0.17446798
103	0x3e41cb5a	0.18925229
104	0x3e4a7f2e	0.19775078
105	0x3e0eebca	0.13957134
106	0x3d661067	0.056167986
107	0x3d85c838	0.06532329
108	0xbe02a81a	-0.12759438
109	0xbdea2294	-0.114323765
110	0x3df439d6	0.11925094
111	0x3e228b00	0.15873337
112	0x3dd2fb59	0.10301847
113	0xbd487fb3	-0.04894991
114	0xbda45347	-0.080236964
115	0xbdccf365	-0.10007361
116	0x3d0a6216	0.03378495
117	0xbddda588	-0.10822588
118	0x3d9052de	0.07047056
119	0x3b83c914	0.004021773
120	0x3cacfd44	0.02111686
121	0xbdf53ccb	-0.11974486
122	0xbd805b71	-0.06267441
123	0x3cc9940f	0.024606733
124	0x3e0101aa	0.12598291
125	0xbc972dea	-0.01845451
126	0xbd22c76f	-0.039740976
127	0x3ddd5c4e	0.10808621
128	0x3e1ac3d4	0.15113765
129	0x3e0c4968	0.13699877
130	0xbe1fc98a	-0.15604225
131	0xbe04739e	-0.1293473
132	0x3df623f0	0.12018573
133	0x3dcd6ff9	0.10031123
134	0x3d7242d9	0.059145782
135	0x3d93e8ee	0.07222162
136	0x3d02a190	0.03189236
137	0x3e51c8a1	0.2048669
138	0x3d6acd65	0.057324786
139	0xbe37c0cb	-0.17944638
140	0xbddbdc3e	-0.10735367
141	0xbd96ac4a	-0.0735708
142	0x3e48c642	0.1960688
143	0xbd72b2db	-0.0592526
144	0x3cfbd3a1	0.030740561
145	0xbe1c436a	-0.15260091
146	0x3dfb980a	0.122848585
147	0xbe4aeca5	-0.19816835
148	0xbda3e9c6	-0.08003573
149	0xbe18d2b0	-0.14924121
150	0xbe72a051	-0.23693968
151	0xbe5aba9b	-0.21360247
152	0x3e1cd48a	0.15315452
153	0xbb1eba2e	-0.0024219858
154	0xbda428f3	-0.08015623
155	0xbd940217	-0.07226961
156	0x3dacb88c	0.08433637
157	0x3ccf394c	0.025295876
158	0x3d59c61b	0.053167444
159	0x3d65da37	0.05611631
160	0x3c567887	0.013090259
161	0xbe63b2c8	-0.22236168
162	0x3e1eae3c	0.15496153
163	0x3e010d58	0.12602746
164	0x3e2ab3fd	0.16670223
165	0x3d518f72	0.05116219
166	0x3e1aab94	0.15104514
167	0x3e5af85a	0.21383801
168	0xbd4fd42b	-0.05073945
169	0xbbfbcc79	-0.007684287
170	0xbcb6acde	-0.022299226
171	0x3ddede24	0.10882214
172	0x3d2e0e80	0.042494297
173	0xbd7373bf	-0.059436556
174	0x3cbff349	0.023431437
175	0x3e67236c	0.22572106
176	0x3d14aa59	0.03629527
177	0x3e218cd2	0.15776375
178	0xbe577893	-0.21042089
179	0x3e665f2e	0.22497246
180	0xbe0cf669	-0.13765873
181	0x3ce3a2ae	0.027787533
182	0xbdfb5c09	-0.12273414
183	0xbdac4dfe	-0.08413313
184	0xbd9e542a	-0.07730897
185	0xbd216ce1	-0.039410476
186	0x3d2909d5	0.041269142
187	0x3c0b541b	0.008503939
188	0x3c48059a	0.012208367
189	0xbb1e9f6a	-0.0024203905
190	0xbe7a76f1	-0.24459435
191	0x3e5fae9f	0.21843956
192	0xbe069b82	-0.13145259
193	0xbe876370	-0.26443052
194	0xbdf7e03a	-0.12103315
195	0xbdc7863d	-0.09742401
196	0xbcf33664	-0.029689021
197	0x3d8789b3	0.06618061
198	0xbb77f4e9	-0.0037835187
199	0xbe1cf6bc	-0.15328497
200	0x3d920b91	0.07131112
201	0x3deeda31	0.116627105
202	0x3e43ed54	0.19133502
203	0x3d99e54b	0.07514437
204	0x3e0cea6f	0.13761304
205	0xb9e2b9d0	-0.0004324452
206	0x3e804a7d	0.2505683
207	0x3c1b0a63	0.009462926
208	0x3d972ef2	0.07382001
209	0xbdde7bdb	-0.10863467
210	0x3d81cf40	0.06338358
211	0x3e34e99a	0.17667237
212	0xbd221b6e	-0.03957694
213	0x3b40b8e9	0.002940709
214	0x3ddc1bab	0.10747465
215	0xbd3b3db8	-0.045713156
216	0xbda81230	-0.08206594
217	0x3dc173a5	0.094458856
218	0x3d51064e	0.051031403
219	0x3dbbe115	0.0917379
220	0x3ed53bf4	0.41647303
221	0x3de7b91c	0.11314604
222	0xbe83de01	-0.25755313
223	0x3e1da2a0	0.15394068
224	0xbd157f2c	-0.036498234
225	0x3e34f1b3	0.17670326
226	0xbe6f494a	-0.23367801
227	0xbe71a514	-0.23598129
228	0x3dd37b69	0.10326273
229	0xbe94242c	-0.28933847
230	0x3e8c6654	0.2742182
231	0x3dcd8efc	0.10037038
232	0xbeb596ef	-0.35466716
233	0x3d5cbfd5	0.053893883
234	0x3ca25c22	0.019819323
235	0x3e8d2d71	0.27573732
236	0xbda2b82c	-0.07945284
237	0x3e0fb439	0.14033593
238	0x3d3ad41d	0.045612443
239	0x3ca00d88	0.019537702
240	0x3bb14fbc	0.0054111164
241	0x3e3c6c98	0.184008
242	0xbe146f42	-0.14495566
243	0xbda98a09	-0.08278281
244	0x3edd9c94	0.43283522
245	0x3d553fc2	0.052062757
246	0x3e1e4eba	0.1545972
247	0xbd4a1d75	-0.0493445
248	0xbe846402	-0.2585755
249	0x3ce6f11f	0.028191147
250	0xbe179e7f	-0.14806555
251	0xbc823964	-0.015896507
252	0xbe04b5ac	-0.12959927
253	0xbd906f26	-0.0705245
254	0xbdf33846	-0.11875968
255	0x3c0cefd0	0.008602098

bottle_neck.0.conv_block.6.weight f4 [32]
0	0x3f55b846	0.83484304
1	0x3f48cb8e	0.784356
2	0x3f4ac329	0.7920404
3	0x3f66f6fa	0.90220606
4	0x3f5c7d81	0.86129004
5	0x3f612c41	0.8795815
6	0x3f6cfe4b	0.9257552
7	0x3f439a6a	0.7640749
8	0x3f2cdb3a	0.67522013
9	0x3f6feaa4	0.9371741
10	0x3f4f650d	0.81013566
11	0x3f839264	1.027905
12	0x3f55ecd7	0.83564514
13	0x3f6bc59e	0.92098415
14	0x3f84f7a2	1.0388072
15	0x3f63b467	0.8894715
16	0x3f406f66	0.7516998
17	0x3f5a5980	0.85292816
18	0x3f2349a8	0.63784266
19	0x3f517a9a	0.818277
20	0x3f9a8d72	1.2074416
21	0x3f8bc678	1.0919943
22	0x3f47d184	0.7805407
23	0x3f3e44f8	0.7432399
24	0x3f34cf8c	0.7062919
25	0x3f80ad3a	1.0052865
26	0x3f707b48	0.9393811
27	0x3f82c354	1.021586
28	0x3f3feec7	0.7497372
29	0x3f8e72ef	1.1128825
30	0x3f5826fd	0.8443449
31	0x3f54fb7d	0.8319624

bottle_neck.0.conv_block.6.bias f4 [32]
0	0xbd83315c	-0.06405899
1	0xbd00e5d9	-0.0314692
2	0xbda0fa14	-0.078601986
3	0xbe7d2237	-0.24720083
4	0x3e005986	0.1253415
5	0xbc907544	-0.017634042
6	0xbc8eff36	-0.017455678
7	0xbd2b0ef8	-0.041762322
8	0xbe1954e5	-0.14973791
9	0xbbfc6079	-0.00770193
10	0xbdbc12c1	-0.091832645
11	0xbd9031b0	-0.07040727
12	0x3df7cc86	0.120995566
13	0xbe261572	-0.16219118
14	0x3c358638	0.0110793635
15	0x3c93a919	0.018024968
16	0x3db3ec4f	0.08785307
17	0xbccaef4f	-0.024772314
18	0x3dda155d	0.10648606
19	0xbd75da80	-0.06002283
20	0xbcf8f846	-0.030391824
21	0x3e215ed2	0.15758827
22	0x3ccc1985	0.024914512
23	0x3d5ea0e1	0.054352645
24	0xbdc7c041	-0.097534664
25	0xbe0972b2	-0.13422659
26	0x3d930bb6	0.07179968
27	0x3c17b0c4	0.009258453
28	0xbd0c7760	-0.034293532
29	0xbe0c861d	-0.13723035
30	0x3d428160	0.047486663
31	0xbe233101	-0.15936662

bottle_neck.0.conv_block.6.running_mean f4 [32]
0	0x3f1a208c	0.6020591
1	0x3f407b00	0.75187683
2	0x3f9631f5	1.1733996
3	0x3f0ed5d6	0.5579504
4	0x3f276e53	0.65402716
5	0xbf278f11	-0.65452677
6	0x3f6ce8b2	0.92542565
7	0xbf1e4f08	-0.6183934
8	0xbfccc5ab	-1.5997823
9	0xbebc2215	-0.36744753
10	0x3f625263	0.8840696
11	0x3e663d4e	0.22484323
12	0xbe08bab1	-0.13352467
13	0xbf4582d4	-0.7715275
14	0x3ecbf2f6	0.39833802
15	0x3d4951eb	0.04915039
16	0xbe8510a5	-0.2598926
17	0x3ec846ba	0.3911646
18	0x3fb0af7c	1.3803554
19	0x3f672a22	0.90298665
20	0x3f8f8c6e	1.1214731
21	0xbf9726b6	-1.1808689
22	0x3e84d1db	0.25941357
23	0x3f108e7a	0.564674
24	0x3fb07496	1.3785579
25	0xbf064295	-0.52445346
26	0x3fb6efa6	1.4291885
27	0x3ea10b25	0.31453815
28	0x3bb2f2d6	0.005461077
29	0x3e9e6695	0.3093764
30	0x3f35df6e	0.7104405
31	0xbfa07795	-1.2536494

bottle_neck.0.conv_block.6.running_var f4 [32]
0	0x4059c5cc	3.4026976
1	0x4097995b	4.73747
2	0x4060a13f	3.5098417
3	0x4090f7e6	4.530261
4	0x403f9f42	2.9940953
5	0x40307430	2.7570915
6	0x4094ccaa	4.6499834
7	0x407002b6	3.7501655
8	0x40a79a0f	5.237556
9	0x4074a71e	3.8227
10	0x40b7445b	5.727094
11	0x401c7609	2.4447043
12	0x40738b18	3.8053646
13	0x409db62b	4.9284873
14	0x4024fa16	2.577764
15	0x4023b7b7	2.558088
16	0x4089b43e	4.303252
17	0x4086c8cd	4.212012
18	0x406a0fc0	3.6572113
19	0x40755532	3.833325
20	0x400b77b2	2.1791806
21	0x3fe806bd	1.8127056
22	0x4082dd78	4.0895348
23	0x4080e752	4.0282373
24	0x40850715	4.1571145
25	0x400aae60	2.166893
26	0x403bf6d4	2.9369402
27	0x3fee0d80	1.859787
28	0x40551be1	3.3298266
29	0x4000d35d	2.0129006
30	0x404d4321	3.2072222
31	0x403e5d8d	2.97446

bottle_neck.1.conv_block.1.weight f4 [32, 32, 3, 3]
0	0xbd83f421	-0.06443048
1	0x3caa13d1	0.020761402
2	0xbdec22ff	-0.115301125
3	0x3e6766b4	0.22597772
4	0x3d2c5051	0.042068783
5	0xbdb62c6a	-0.0889519
6	0x3e127239	0.14301385
7	0xbd641c16	-0.055690847
8	0xbdb63d4d	-0.08898411
9	0x3cd5ae04	0.026083954
10	0x3a7595ae	0.00093683123
11	0xbba51245	-0.0050375783
12	0x3da17a81	0.07884694
13	0x3df6ef85	0.120574035
14	0xbe2a3f8f	-0.16625808
15	0xbca2098a	-0.01977994
16	0xbd60e16f	-0.05490249
17	0xbdccd03f	-0.10000657
18	0x3eb0c105	0.34522262
19	0xbcabbbf8	-0.020963654
20	0x3d85d748	0.06535202
21	0x3d829549	0.0637613
22	0x3d490ebf	0.04908633
23	0x3e129ce6	0.14317665
24	0xbd7ee41c	-0.06222926
25	0xbdf61715	-0.12016121
26	0x3c10c215	0.008835335
27	0x3da6a7de	0.08137487
28	0x3d88af93	0.06674113
29	0x3c93aab4	0.018025734
30	0x3cc86d19	0.024466084
31	0xbde56791	-0.11201394
32	0xbde641ef	-0.112430446
33	0xbe46d713	-0.19417982
34	0xbdee3279	-0.11630721
35	0xbdc9b5f5	-0.09849159
36	0x3e744440	0.2385416
37	0xbd73d680	-0.059530735
38	0x3e16888b	0.14700525
39	0xbbf28203	-0.0074007525
40	0x3dc1b438	0.09458202
41	0x3e44f30c	0.1923334
42	0x3df884a6	0.12134676
43	0xbd15dc57	-0.036587086
44	0x3d70c38d	0.05878024
45	0x3e4e0ccd	0.2012207
46	0x3e6a61ca	0.22888866
47	0x3b672a44	0.0035272995
48	0x3daaa8c3	0.0833297
49	0x3d6053bd	0.05476736
50	0xbda65e40	-0.081234455
51	0xbe5a5e46	-0.21325025
52	0xbe581005	-0.21099861
53	0xbe96386c	-0.2933992
54	0x3e5b936e	0.21442959
55	0x3e2b749f	0.16743706
56	0x3e2a19ed	0.16611452
57	0xbd5f1f1b	-0.054473024
58	0x3c830e25	0.015997956
59	0xbe21c609	-0.157982
60	0xbe6cde78	-0.2313174
61	0xbd65978b	-0.056052726
62	0xbd7e4cc2	-0.06208492
63	0xbd8236be	-0.063580975
64	0x3cee8e23	0.02912051
65	0x3d1057de	0.035240047
66	0xbc85abfd	-0.016317362
67	0x3e6f2ee3	0.2335773
68	0xbdab2342	-0.08356334
69	0x3db4aede	0.08822416
70	0x3e000701	0.12502672
71	0xbe244676	-0.16042504
72	0xbd96ee5e	-0.07369684
73	0xbc7278a7	-0.014799274
74	0x3d76c5c6	0.060247205
75	0xbd318d58	-0.043347687
76	0x3d423e53	0.04742272
77	0x3ccf0d6b	0.025274953
78	0xbd977622	-0.07395579
79	0x3df89891	0.12138475
80	0xbdbc67b4	-0.09199467
81	0x3dc5c44e	0.09656583
82	0xbdee075f	-0.116225
83	0x3dd1318b	0.10214528
84	0x3d1028e3	0.035195243
85	0x3da50c95	0.080590405
86	0xbbae071c	-0.005310906
87	0xbdf02207	-0.1172524
88	0xbdbce992	-0.092242375
89	0xbe237b13	-0.15964918
90	0x3e12504b	0.14288442
91	0x3d35e7fc	0.04441069
92	0xbe2cef93	-0.16888265
93	0x3d391c1d	0.045192827
94	0x3d41f150	0.047349274
95	0xbe2c9089	-0.16852011
96	0xbe3b1941	-0.18271352
97	0xbe016268	-0.12635195
98	0xbcc2c5fd	-0.023776049
99	0xbe7a69e1	-0.24454452
100	0xbe328f38	-0.17437446
101	0x3d017e56	0.031614624
102	0x3e7481f2	0.23877695
103	0x3d193808	0.03740695
104	0x3db6363a	0.08897062
105	0x3ea90143	0.33008775
106	0x3ec3b751	0.38225797
107	0x3daaea5f	0.08345484
108	0x3e11a0a3	0.14221434
109	0x3e511e0b	0.20421617
110	0x3d3bd2c9	0.045855317
111	0xbe4f2f46	-0.20232877
112	0x3dbd1d89	0.09234149
113	0xbcac426e	-0.02102777
114	0x3d6dcee7	0.058058646
115	0x3e06b8e4	0.13156468
116	0x3e0c60a7	0.13708745
117	0x3d65a02b	0.05606095
118	0x3d7a1f64	0.061065093
119	0xbb4f9b90	-0.0031678416
120	0x3cc25b36	0.023725133
121	0x3e155c06	0.14585885
122	0xbe2781f3	-0.16358165
123	0xbe141667	-0.14461671
124	0xbe6fb2b4	-0.23408014
125	0xbeb2f150	-0.34949732
126	0xbe636845	-0.22207744
127	0xbe4a8594	-0.19777519
128	0xbe0cb022	-0.13739064
129	0x3e35ff95	0.17773278
130	0x3a6dfe19	0.0009078696
131	0x3da83b07	0.082143836
132	0x3e8ef38d	0.2792019
133	0xbe8e9b75	-0.2785298
134	0x3d9e0021	0.07714868
135	0x3d980ef4	0.07424727
136	0xbd43bda6	-0.047788285
137	0xbdafd41a	-0.08585377
138	0x3e3ed35a	0.18635312
139	0x3e08be59	0.13353862
140	0xbda891a5	-0.082309045
141	0xbd8e692a	-0.06953652
142	0xbe2aafaf	-0.1666858
143	0xbdf1bba6	-0.11803369
144	0x3e2b2638	0.16713798
145	0x3dd8db38	0.10588688
146	0x3e2d847f	0.16945074
147	0x3d45502f	0.048172172
148	0x3d25c4b7	0.040470805
149	0x3e27051d	0.16310544
150	0xbe0b5c1f	-0.1360936
151	0x3e370a63	0.17875056
152	0x3e1d7dfc	0.1538009
153	0xbe1886ef	-0.14895223
154	0x3d971fbe	0.07379101
155	0xbd71c310	-0.059023917
156	0x3d23a357	0.039950695
157	0x3e1e74c1	0.15474226
158	0xbe3d497b	-0.18485062
159	0x3dd3abc0	0.10335493
160	0xbe0aff3b	-0.13573925
161	0xbdced4a4	-0.10099152
162	0x3d9c3e70	0.076290965
163	0x3df97765	0.12180976
164	0xbe62157c	-0.22078508
165	0x3d5fdbdf	0.054653045
166	0x3dd6bd06	0.10485272
167	0x3bddfa1a	0.006774199
168	0xbe05b3ce	-0.13056871
169	0xbe210ea2	-0.15728238
170	0xbe5e806d	-0.21728678
171	0xbe44acc9	-0.19206537
172	0xbd8a8ece	-0.06765519
173	0xbdb03765	-0.08604316
174	0x3d9b80d1	0.07592929
175	0x3def5108	0.11685377
176	0xbe25fa3f	-0.16208743
177	0x3defe4b9	0.11713547
178	0xbe07fcfc	-0.132801
179	0xbd802ff9	-0.0625915
180	0x3e009951	0.12558486
181	0xbc3326c4	-0.010934535
182	0xbe5428bd	-0.20718665
183	0xbc8d3a06	-0.017239582
184	0xbe01b5a9	-0.12666954
185	0x3dfcce6e	0.12344061
186	0x3e5a79b1	0.21335484
187	0xbd03340d	-0.03203206
188	0x3d9d759c	0.07688448
189	0x3dc425f7	0.09577554
190	0xbe5a541b	-0.21321146
191	0xbd600cce	-0.05469971
192	0xbe410850	-0.18850827
193	0xbaaeb1e9	-0.0013328168
194	0x3eb5589b	0.35419163
195	0x3c3dde7f	0.011588692
196	0xbddb86af	-0.10719048
197	0x3e61972d	0.22030325
198	0xbe5fff8b	-0.21874826
199	0x3d928659	0.07154531
200	0x3e757156	0.23969015
201	0x3c0a1168	0.008427002
202	0x3c933fe6	0.017974805
203	0xbe1d2fb7	-0.15350233
204	0x3d4a8d9c	0.049451455
205	0x3b63f6c4	0.0034784535
206	0x3d9f9a7a	0.07793136
207	0x3e5c6d3e	0.21526048
208	0x3d2c265f	0.04202878
209	0x3d96b3dd	0.07358525
210	0xbd96deeb	-0.07366737
211	0xbeb103d6	-0.3457324
212	0x3d033677	0.032034364
213	0xbe26fe26	-0.16307887
214	0x3d82e8bd	0.063920476
215	0x3d9dc0e7	0.07702809
216	0xbdb14d4b	-0.086573206
217	0xbcb77517	-0.0223947
218	0x3dbb6e52	0.09151901
219	0x3d8991fc	0.067172974
220	0x3c947886	0.018123876
221	0xbcbcaffd	-0.023033137
222	0xbcd918a8	-0.026501015
223	0x3d461c5d	0.048366893
224	0x3d53369c	0.05156575
225	0x3de05362	0.10953404
226	0xbd442812	-0.047889777
227	0x3dac341c	0.084083766
228	0xbdef9cd9	-0.11699838
229	0xbd199ba1	-0.037501935
230	0x3e3e1234	0.18561631
231	0x3cc6acde	0.024252351
232	0x3d16c653	0.03681023
233	0xbd335f03	-0.043791782
234	0x3dae95e4	0.08524683
235	0x3df98c68	0.121849835
236	0x3de97933	0.1140007
237	0x3e82c2bb	0.25539193
238	0xbdf18f2b	-0.11794885
239	0x3e08ad8d	0.13347454
240	0x3d3fd334	0.04683228
241	0x3d8e557c	0.069498986
242	0x3e05ebbe	0.1307821
243	0xbde824e7	-0.113351636
244	0xbdfcb706	-0.123395965
245	0x3de13806	0.10997014
246	0xbe667458	-0.22505319
247	0xbe627986	-0.2211667
248	0xbc979cc9	-0.018507378
249	0x3d3d39ae	0.046197586
250	0xbe81bbd6	-0.2533862
251	0x3d34e2c6	0.04416158
252	0xbd402c39	-0.046917174
253	0x3cb6f943	0.022335654
254	0x3d0e3efd	0.03472804
255	0x3cc9de1e	0.024642047

bottle_neck.1.conv_block.2.weight f4 [32]
0	0x3f8a6588	1.0812235
1	0x3f6b60e2	0.91944706
2	0x3f64ca8e	0.89371574
3	0x3f863597	1.0485104
4	0x3f5f2586	0.8716663
5	0x3f46e6b0	0.7769575
6	0x3f65b54a	0.8972975
7	0x3f7a5008	0.9777837
8	0x3f563919	0.83680874
9	0x3f7b3f9d	0.9814394
10	0x3fa01db4	1.2509065
11	0x3f618895	0.8809903
12	0x3f77552b	0.9661433
13	0x3f6037fc	0.87585425
14	0x3f834bb1	1.0257474
15	0x3f71750b	0.9431922
16	0x3f6d2528	0.9263482
17	0x3f7c29d4	0.98501325
18	0x3f879962	1.0593684
19	0x3f6594bb	0.8968007
20	0x3f66ad56	0.9010824
21	0x3f7f4381	0.9971238
22	0x3f7d8111	0.99025065
23	0x3f63616d	0.88820535
24	0x3f5d0410	0.86334324
25	0x3f816ec9	1.0111934
26	0x3f72b60a	0.9480902
27	0x3f71cc9a	0.9445282
28	0x3f5c436a	0.86040366
29	0x3f81003e	1.0078199
30	0x3f3ea385	0.7446826
31	0x3f83f4e0	1.0309105

bottle_neck.1.conv_block.2.bias f4 [32]
0	0xbdf25d3a	-0.11834188
1	0xbee08dc9	-0.43858173
2	0xbecc809a	-0.39941865
3	0xbe1a2e82	-0.15056804
4	0xbe2f4a5b	-0.17118208
5	0xbf224099	-0.6337982
6	0xbecdc93b	-0.4019259
7	0xbebb095c	-0.36530578
8	0xbe8b7504	-0.27237713
9	0xbef8819c	-0.48536384
10	0xbf2434da	-0.64143145
11	0xbe97ad9f	-0.2962465
12	0xbf1eaf96	-0.6198667
13	0xbede385e	-0.4340238
14	0xbf01f2f7	-0.5076136
15	0xbe9306d3	-0.28716144
16	0xbeb8adfb	-0.36070237
17	0xbecb83ec	-0.39749086
18	0xbea999c4	-0.33125126
19	0xbee91467	-0.45523378
20	0xbeb1d5eb	-0.3473352
21	0xbebc17d8	-0.3673694
22	0xbeb87c09	-0.3603213
23	0xbe945e18	-0.28978038
24	0xbee9473c	-0.4556216
25	0xbe321dc5	-0.17394169
26	0xbeae5f36	-0.34057015
27	0xbee155c6	-0.44010752
28	0xbe80ddf0	-0.25169325
29	0xbec416f4	-0.38298762
30	0xbf06a376	-0.5259317
31	0xbe89d9aa	-0.26923877

bottle_neck.1.conv_block.2.running_mean f4 [32]
0	0xbe07bd9b	-0.13255922
1	0x402a0c25	2.6569912
2	0xc0031101	-2.0479128
3	0xbe8f7946	-0.28022212
4	0xc0412bb8	-3.0182934
5	0xbfef3fe9	-1.8691379
6	0x3f3d538a	0.73955595
7	0xbfac2aa4	-1.3450513
8	0xbf85a633	-1.0441345
9	0xbf12829e	-0.57230556
10	0x4026156d	2.5950577
11	0x3f65dd0d	0.8979042
12	0xbf20089b	-0.6251313
13	0xbf503af0	-0.8133993
14	0x3f807ec0	1.0038681
15	0xbf92a622	-1.145695
16	0xbd9035ba	-0.070414975
17	0xbe668c08	-0.22514355
18	0x401c9320	2.4464798
19	0xbef491a8	-0.47767377
20	0x3fbbdd79	1.4676963
21	0xbf478fb3	-0.7795364
22	0x3f8aeadd	1.0852925
23	0xbe9f51ca	-0.31117088
24	0x3e1d39e7	0.15354119
25	0xbf069192	-0.5256587
26	0x3fd96669	1.6984378
27	0x3f9361dc	1.1514239
28	0x3fb0fbbc	1.3826823
29	0xbf9551f2	-1.1665633
30	0xbf5121e6	-0.8169235
31	0xc01e5537	-2.473951

bottle_neck.1.conv_block.2.running_var f4 [32]
0	0x41d1d599	26.229296
1	0x41970776	18.878643
2	0x421cc1b1	39.18915
3	0x41f98314	31.189003
4	0x423fda4f	47.963192
5	0x41d26635	26.299906
6	0x41ab8ba8	21.443192
7	0x41de6335	27.79844
8	0x41e2cacb	28.34902
9	0x41fe12bc	31.759148
10	0x41c06813	24.050817
11	0x41ea70ad	29.305017
12	0x41f8d47e	31.103756
13	0x41b13d7b	22.15502
14	0x4201e222	32.470833
15	0x41c59b77	24.70091
16	0x41d46be9	26.55269
17	0x42045699	33.084568
18	0x4223316c	40.798264
19	0x41a4f9e4	20.622017
20	0x41fd6a5f	31.676939
21	0x41a14ec2	20.163456
22	0x41b79999	22.949999
23	0x41d060fc	26.047356
24	0x41a46639	20.549913
25	0x41f22e30	30.272552
26	0x42032dff	32.794918
27	0x41d2747f	26.306883
28	0x4219862e	38.381035
29	0x41a4d925	20.606028
30	0x419c2b46	19.52113
31	0x42349d56	45.15365
