models/netG_epoch_20.pth (torch_old, 358091 bytes, 49 tensors)

encoder.0.weight f4 [8, 1, 3, 3]
00000000: c6b4 9dbd ff88 2c3b 4faa 393c 4339 03be
00000010: 5af6 333d 6f18 523c 6809 dfbd a346 9dbd
00000020: 4d84 2abe e980 ab3c 888c 853d 15cf 1c3d
00000030: b706 e23d 0817 043e 9f1c de3b fd87 e43c
00000040: 8472 863d 9716 5c3d 7467 ae3d eb21 9f3d
00000050: 4a28 1a3d 9b80 b33d 94f5 ca3a 5182 afbc
00000060: 1a49 043d fcf7 30bd 1a0c 18be 905d 4dbb
00000070: d78f 5b3d 3b36 e03d 949a 85bd d673 393d
00000080: e826 4d3d 5e15 24be 9312 96bd a5ae 25be
00000090: 9acc a3bc 0053 3e3d e11d 843d b1da 3abe
000000a0: 1a30 96bd 702c 37be 8f1e aebc 3c62 3f3d
000000b0: e131 8cbd 2beb 353c cfa6 0c3c f9b5 dfbd
000000c0: 2979 533c 2926 9dbd b0e2 1bbe 5069 96bd
000000d0: e909 94bd 245e 02bd af25 313d f5e4 05bd
000000e0: d056 11be 71c1 273d 4833 963d b6d5 01bd
000000f0: bf87 f43c e2af d43d 9877 dd3d fcc9 a7bd
00000100: 45ee 3cbc a9e9 893d 2cd9 5dbc 1341 823d
00000110: f2f4 b43e be6c 1abd b1ac 6fbc 393f 333c
-0.077004954 0.0026326773 0.011332109 -0.12814812 0.04393611 0.012823208 -0.10890466 -0.076794885
-0.16652031 0.020935493 0.06520945 0.038283426 0.11036437 0.1289941 0.0067783142 0.027896876
0.06564811 0.05373248 0.08515826 0.07770141 0.03763608 0.08764764 0.0015484565 -0.021424444
0.032296278 -0.043205246 -0.14848366 -0.0031336285 0.053603973 0.10947844 -0.06523624 0.045276485
0.050085932 -0.16023776 -0.073277615 -0.16179903 -0.019995023 0.046465874 0.064510114 -0.18247487
-0.073333934 -0.17888045 -0.021254806 0.046724543 -0.06845451 0.011103432 0.008584692 -0.109233804
0.012907305 -0.07673294 -0.15223193 -0.073443055 -0.07228453 -0.03182806 0.04324883 -0.032689054
-0.14193273 0.040955964 0.07334 -0.03169795 0.029849885 0.103851095 0.10813826 -0.08192822
-0.011531417 0.0673402 -0.013540547 0.06360068 0.35343128 -0.03770136 -0.014628575 0.010940366

encoder.0.bias f4 [8]
00000000: b381 193d ccec 5fbe 9142 6b3e af50 993d
00000010: 93d1 56be 0fe8 3f3e 9f36 31be 98ec d33d
0.037477206 -0.21867675 0.22974612 0.07486092 -0.20978384 0.18740867 -0.17305993 0.10347861

encoder.3.weight f4 [16, 8, 3, 3]
00000000: 480b 64be 50df 70be 1787 4fbe 2de4 c6bd
00000010: cc6c fbbd 32a4 17be 5958 ef3b d2d5 9fbd
00000020: 3c7c a3bd d9b2 583d 264d 853d be72 e43d
00000030: 52f1 a2bc 2f12 db3a 77f0 3a3d 785f 2a3d
00000040: cd5f b8bb 363a aabc aade 7f3d 6fc4 013e
00000050: c457 d33d 8f30 9f3c 0835 b63d 4568 a83d
00000060: ccba 0a3d 44c7 19bd 0d7a a7bc ef51 f7bc
00000070: 1a33 bbbc 124f 593c 8678 0fbc c5c6 233c
00000080: 5231 bdbc 4106 a3bd 8d82 35bd 0e12 34bd
00000090: d4cf c5bd 85cb 62be 97e2 63be 3402 8cbd
000000a0: 2177 4dbd 1d65 1bbe 14a6 85bd 9bce e3bc
000000b0: 0049 48bd e1ef 65bd de6a 74be 21f4 46be
000000c0: 8a5c b9bd c96b d0bd 7f67 04be baa5 a3bb
000000d0: e316 ddbc 58d6 aabd d4ae 43bd 1504 ca3c
000000e0: 5738 383c 4e31 4fbd ee70 dbbc 4933 d5bc
000000f0: 0e9d 3dbd 6686 dabc 215d f13b c673 913d
00000100: 7c05 9a3d d12a 063e 816c 313d 2d9e a43d
00000110: 19e1 a53a 5543 83bc 6733 a2bc 2a3d 96bc
00000120: 5198 82bd d732 68bd 27e8 a5bc 19d2 1abe
00000130: 56bf 0fbe b4a4 adbd 425a 88bd ec11 17be
00000140: 7aec 18be 9270 1d3d 16cf ac3c 59f9 0a3c
00000150: d2b3 923c 34b2 af3c 947e 0dba a84d c93c
00000160: 6a4d b03d 86be 9d3d ae5a dc3c cfc3 223d
00000170: 4d2d 223d 92ca 4dbd bcce 483c 2717 743c
00000180: f5cf 26bb ff04 7bbd d342 493c 6928 31bd
00000190: 1d4a d7bd 3365 abbd 2e07 b0bc 6e31 32bd
000001a0: d150 71bd 0b4f 16bd 2137 3fbc 51c9 e33c
000001b0: fbb2 d7bc 1f97 9ebd 0c83 1abd d2a5 e3bd
000001c0: 747c 4ebe 8daa 01be d2cc c4bd ef4f debd
000001d0: d6dc cabd c4a1 c6bc 865c 82bd cb97 1fbc
000001e0: 08d3 f2bd 1080 42be 114a 1cbe 32cc d1bd
000001f0: 5c3b 3ebe 9419 2ebe 8d12 993c 8b30 603b
00000200: 448a 60bd 9fcc 8e3d 2834 dd3d 9a02 f23c
00000210: 6fad c93d ccd5 093e 8bb8 973d e253 8abb
00000220: 40f2 ad3c 0b0f 163c 5d4c ffbb 30af 523d
00000230: c741 4cbc df78 eb3d 8a40 b43d eb2b fe3c
00000240: 2999 d6bd a491 8abb 84d4 d63c 5fa8 c7bd
00000250: 07f3 1a3c 187f 263d f8d5 f4bd 05a4 68bd
00000260: 8f71 2c3d 5ba3 8cbb 8813 b03c 2bb1 44bd
00000270: f378 4f3d c913 d83d e26e 723b e54c 9b3d
00000280: 94d7 983d 97c8 a9bb 79ef 2bbd df6b 8abb
00000290: 6d35 8f3d 96d6 6abd 28e2 13bc 63aa cb3c
000002a0: d89c 7f3d 6ecb 783d d15f 6fbc cd0b 30be
000002b0: 6729 33bd c881 383d a692 2abe 21b0 a2bd
000002c0: c629 423b 48f7 a8bd 20fe 1cbc 703e 263d
000002d0: 2653 21be 402b 08be 9574 c5bc 11cf 13be
000002e0: 549a 06bc a660 673c 4531 36be ebf4 afbd
000002f0: c277 8d3c e387 94bc 0b35 d5bc acc1 8f3c
00000300: 66fd 8fbc a584 de3c 751e 70bd 0c3e 51bd
00000310: 84ba b6bc aee9 7fbc 8b3b b13c bc56 913d
00000320: a7f7 ccbd 095c ff3c d273 8e3d 2cd5 703d
00000330: cd89 16bb 4683 5b3d ce9f e83d b526 2b3d
00000340: c671 81bd 52ed 0bbe dbf1 bf3d d821 a5bc
00000350: c970 fabd 1a4b 8d3d 343e 0dbc 658a 1ebe
00000360: d477 753d c994 15bc 77d6 d8bd eeef 0b3c
00000370: 7e9f ebbd 226e 78be 2d03 223c 32f9 aabc
00000380: cf7f babc 3336 25bd 9298 3bbd 8f88 70bc
00000390: 9e0a 07be 7300 73bd 4aed 723b 94d5 ccbd
000003a0: c687 1ebd f644 2f3d 8c5a 033d 4602 5e3d
000003b0: e0c3 5b3d 8db7 c2bd 6728 9bbd 81b0 b33c
000003c0: 5b02 60bd 1a96 75bd 78ec 7d3c b71f 533d
000003d0: 9886 6ebd 4246 f7bd a06a dc3c 4fda c8bd
000003e0: a43e 42be 2919 39bc 471a 30bd 4ea1 99bd
000003f0: 848b 243d e5c6 453c 04f6 4cbd 5ba6 6f3c
-0.22269928 -0.23522687 -0.20266376 -0.0971149 -0.12276611 -0.1480873 0.007304233 -0.07804455
-0.0798268 0.052904937 0.065088555 0.11154698 -0.019890461 0.0016713793 0.04563948 0.041594952
-0.0056266547 -0.02077971 0.06246821 0.1267259 0.10319474 0.019432334 0.08896834 0.08223013
0.03386955 -0.03754355 -0.02044394 -0.030190436 -0.022851516 0.013263481 -0.008756762 0.009996121
-0.023094807 -0.07960177 -0.044313956 -0.04396253 -0.09658781 -0.22147949 -0.22254406 -0.06836358
-0.05016244 -0.1517529 -0.065258175 -0.027808478 -0.048897743 -0.05613697 -0.23868892 -0.19429065
-0.090508536 -0.101768084 -0.12930106 -0.0049941214 -0.026988452 -0.08341664 -0.04777415 0.02466015
0.011243901 -0.05058413 -0.026787248 -0.026025431 -0.046292357 -0.026675414 0.007365838 0.0710216
0.07520577 0.1310227 0.043316368 0.08037982 0.0012655585 -0.016023317 -0.019799901 -0.018339712
-0.06376708 -0.05668911 -0.0202523 -0.15119208 -0.14037833 -0.0847868 -0.0665784 -0.1475293
-0.14933959 0.038437434 0.02109484 0.008482301 0.01790801 0.021447279 -0.0005397585 0.024573162
0.086085156 0.07702355 0.026898708 0.03973752 0.039593983 -0.050242014 0.012256321 0.014898098
-0.0025453542 -0.06128406 0.012283999 -0.04325143 -0.10512183 -0.083689116 -0.021487799 -0.04350417
-0.058914963 -0.036696475 -0.011670859 0.027805956 -0.026330462 -0.07743668 -0.037722632 -0.11115612
-0.20164663 -0.12662716 -0.09609379 -0.1085509 -0.09905402 -0.024247058 -0.06365304 -0.00974078
-0.11856657 -0.18994164 -0.15262629 -0.10244025 -0.18577331 -0.17001945 0.018685604 0.0034208621
-0.05481936 0.06972622 0.10800964 0.029542256 0.09847533 0.13460463 0.07408246 -0.0042214254
0.021233678 0.00915886 -0.0077910856 0.051436603 -0.012466854 0.11497664 0.08801372 0.031026801
-0.10478432 -0.0042287875 0.026224382 -0.09748911 0.009457356 0.04064855 -0.11954874 -0.056797046
0.042100485 -0.0042919344 0.021493688 -0.048020523 0.050652456 0.10550649 0.003699236 0.07583026
0.07462993 -0.005181383 -0.041976426 -0.004224285 0.06992612 -0.05733355 -0.009026088 0.02486152
0.062405437 0.06074088 -0.014610247 -0.17192002 -0.043740656 0.045045644 -0.16657504 -0.0794375
0.002962695 -0.0825029 -0.0095820725 0.04058689 -0.15754375 -0.13297749 -0.024103442 -0.14434458
-0.008215506 0.014122164 -0.17792232 -0.08591636 0.017269019 -0.018131202 -0.02602627 0.017548405
-0.017576884 0.02716286 -0.058622796 -0.051084563 -0.022305734 -0.015619678 0.021634838 0.070966214
-0.100081734 0.031171815 0.06955685 0.058797047 -0.002297032 0.05359199 0.11358605 0.04178496
-0.06320529 -0.1366475 0.09372302 -0.02015774 -0.12228543 0.0689909 -0.008620787 -0.15482481
0.05992873 -0.009129711 -0.10587781 0.00854109 -0.1150503 -0.24260762 0.0098884525 -0.020870779
-0.022766022 -0.04033489 -0.0457998 -0.014680996 -0.13187644 -0.0593266 0.0037067705 -0.10001674
-0.038703702 0.042790376 0.032068774 0.054201387 0.053653598 -0.09507666 -0.075760655 0.02193475
-0.054689746 -0.0599576 0.015498273 0.051543918 -0.058233827 -0.120739475 0.026906312 -0.09807264
-0.18969208 -0.011297503 -0.04299381 -0.075014696 0.040172115 0.012071346 -0.050039306 0.014627065

encoder.3.bias f4 [16]
00000000: 123d 18bd 34e6 103e 4a24 cd3d 1630 ef3d
00000010: 7116 4fbd 823d 983d 6b5c 2abe 0dc5 0f3e
00000020: df8b 443e 4e7d dabd 065c 853d 8803 d7bb
00000030: 1389 553d ec7a 5b3b 0007 a63c 2d78 203e
-0.037167616 0.14150316 0.10016687 0.116790935 -0.05055851 0.07433607 -0.16636817 0.14040013
0.19193982 -0.10668431 0.06511693 -0.0065617003 0.052132677 0.0033490015 0.02026701 0.15670843

encoder.6.weight f4 [32, 16, 3, 3]
00000000: adaa d8bd e91b 7a3b fd22 85bd cd7a 103c
00000010: ceb8 1abd 4ce4 00bc 0ad7 3ebd f6c8 763d
00000020: 61db 993d efb4 a5bc afb0 3bbd b255 a0bd
00000030: cbac d2bc 6aac 81bd 0b21 213d 9bfa 19bd
00000040: e09a 0d3d bbed 20bc 90d6 b8bd 8e72 b1bc
00000050: dee8 b5bd aa72 24bd 3e68 5e3c e9e6 ac3c
00000060: 7e2d 75bd e7f3 0fbd 1bfa f63d 4aa5 1d3d
00000070: abb4 d1bd 681c 453a 0348 f4bc d21a da3d
00000080: 4eeb c43c 4242 0a3e d924 cf3d dc10 0fbe
00000090: a9bc d53c cdec f5bd d1b4 b9bd 6233 61bd
000000a0: a091 863d bf46 c53d dfbb 993d 8ad5 763d
000000b0: a03b c0bd f2e4 ae3b b7a9 3ebd 2585 debd
000000c0: 2897 d33c 0379 bbbc 4212 ca3d b5b7 fdbc
000000d0: 504a 333d ad3a 3e3d 913d 74bc 0a1a 7ebd
000000e0: c3e5 abbd ca59 41bd c498 2b3d f103 553c
000000f0: fd6b 67ba 82c7 f43c c9aa 7cbd 0673 44bd
00000100: f57b 88bc ba68 85bd 0b3a 113d f9e3 2fbc
00000110: 885c 2f3d c4ba 42bd b242 1f3e 33ce 833d
00000120: ddd8 bdbd dae0 93bc 89de 08bd 1671 8fbb
00000130: 955d a1bb 6482 a1bc c02b dbbc 60b4 b53c
00000140: 8e0b 8e3d be9b d5bb 168c dabc 1fde c2bd
00000150: 3655 a83c 518f 113c 44d1 063d 7809 01bb
00000160: 202a 823d 00b4 ae3d 399a febd eea8 503d
00000170: 95fc 59bd 9411 46bc 71a8 9bbc 6418 b7bd
00000180: 26c8 2f3d 32fd ffbb 20a6 143e 60a5 303d
00000190: 8f9d e0bd d056 0ebd a44f b1bd 09bc 8b3d
000001a0: 00f0 e43d 67c2 92bd 0931 9ebd 8f9a 2abd
000001b0: 4f2c a53b dba4 95bc 341d 6dbd 23b4 0c3d
000001c0: 4769 243c 28ab 2b3d 2e5a 963c 11bc f03d
000001d0: 5ece cc3d 77dc 753d 466a f83d 01cd 293e
000001e0: 8f87 293d 3803 7b3c 5147 ef3c f245 e9bc
000001f0: 74ff 9bbd 5d5c 62bd 4614 0d3d f52b 003e
00000200: 10ec 373e 1453 98bb 7787 b33d 752e fa3c
00000210: eb90 533d 3fd8 d5bd 0ff4 74bd 156b c7bd
00000220: f792 81bc 449f 973c 8160 e13c e106 3e3b
00000230: a1c6 91bd 74f2 ab3c 6f10 573d 74b9 193e
00000240: 11f9 28bd f5ff 1a3c eeb8 e1bb 52fd 52bd
00000250: 3429 843d 2a16 90bc 4912 2fbb 6386 b23d
00000260: c95a a2bd d637 66bc 34fe b83b 831e 9ebd
00000270: 57b4 4cbd 7c1a 193e 552e 163d a0db 69bd
00000280: fc5c 453d ff66 f2bc 281c d63c 2e04 af3c
00000290: fb54 54bc c9a1 87bd cbd8 b13d 8c4e a53d
000002a0: d0aa d7bd 6f44 123e 8de0 4e3d 973d 843d
000002b0: 8f50 14bb e412 b0bd f2ca 2f3e 93f0 853a
000002c0: 646c d3bd c79a 9d3d df12 84bc caec fabd
000002d0: 4d9b e03c 3c4a 293d 237b 0abe d109 f93d
000002e0: ad45 0f3e 5cbc 1ebd ea0c a93d acc7 033d
000002f0: de8d 7b3c 102d b8bc 678f b13c ac19 76bd
00000300: 3ce4 cb3d 3e52 b13d 7672 96bd a87b 853d
00000310: 46ba 9a3d 31e7 ac3c dbd5 28bc 0c0f 08ba
00000320: 9b10 b4bd a20d d83c c14f d63d cca7 01bd
00000330: 0d6d 26bd f4dd ab3d c690 51bd acad e1bc
00000340: 8e31 6a39 d7bb 82bd 46e0 453d f43e a93d
00000350: 9318 c4bd 880b ec3d 556c b73d efe3 f4bc
00000360: afc5 f73c a5bb 7cbc 0987 22bd 1b45 13bd
00000370: 2010 4b3d 32a6 fcbc 7398 d53b a506 593d
00000380: 0bc5 9fbc 85f7 04bd 1914 943d b27d 02bd
00000390: f53f 203d 87d3 833d 0b28 97bd 8d52 883b
000003a0: 2ee0 593d 584b 5bbd 1527 033d 3064 823c
000003b0: d65c af3c 53e1 69bb d3e2 9cbd 5dd1 173a
000003c0: c6f5 853d 410d a63c e592 113d a0b3 4e3b
000003d0: 4a6b 26bd 2693 5abd ca0c dc3d b6aa 813e
000003e0: 1c56 a33d 46bf cdbd ac74 1ebb e255 223e
000003f0: 8d66 dd3b 4179 793d 9921 3a3c f4ab 32bd
-0.10579429 0.0038163608 -0.06500814 0.0088183405 -0.0377739 -0.00786693 -0.046591796 0.060250245
0.07512546 -0.020227877 -0.045822795 -0.07828845 -0.02571716 -0.063317135 0.039338153 -0.03759251
0.03457153 -0.009822304 -0.090252995 -0.02166107 -0.088823065 -0.040148415 0.013574658 0.0211062
-0.059857838 -0.035144713 0.120594226 0.03848771 -0.10239538 0.00075191865 -0.029819494 0.10649647
0.024037983 0.13501838 0.1011445 -0.13971275 0.026090937 -0.12008057 -0.09067691 -0.054980643
0.065707445 0.09632634 0.07506537 0.06026224 -0.093863726 0.005337351 -0.04654857 -0.10865239
0.025828913 -0.022884851 0.09866764 -0.030971387 0.04377204 0.046442676 -0.014907257 -0.06203655
-0.08393433 -0.04720477 0.041893736 0.013001428 -0.0008828042 0.029880289 -0.06168631 -0.047961257
-0.01666067 -0.06514116 0.035455745 -0.010735505 0.042812854 -0.047541395 0.15552786 0.06435814
-0.09269879 -0.018051554 -0.03341535 -0.0043774946 -0.004924486 -0.019715495 -0.02675426 0.022180736
0.06935798 -0.00651881 -0.026678126 -0.095150225 0.020548444 0.008884267 0.032914415 -0.0019689482
0.06355691 0.08530426 -0.124317594 0.050942354 -0.053219397 -0.012089152 -0.019001218 -0.08940199
0.042915486 -0.0078121657 0.14516497 0.043126464 -0.10967552 -0.03475076 -0.08657768 0.06822974
0.11178589 -0.071659856 -0.077241965 -0.041651305 0.0050406824 -0.018267086 -0.05788918 0.03435148
0.010034866 0.041911274 0.018353548 0.11754621 0.10000299 0.060024705 0.12129645 0.16582109
0.041389044 0.015320592 0.029208811 -0.028475735 -0.07617083 -0.055263866 0.034443162 0.12516768
0.17961144 -0.0046485756 0.08766072 0.03053973 0.051651876 -0.10441636 -0.059803065 -0.09737221
-0.015817149 0.018508561 0.027511837 0.00289958 -0.071179636 0.020989634 0.052505907 0.15012151
-0.041253153 0.009460439 -0.0068885004 -0.051511116 0.06453171 -0.017588694 -0.002671378 0.087170385
-0.07927472 -0.014051398 0.0056455377 -0.077206634 -0.049976673 0.14951509 0.03666528 -0.057094216
0.04818438 -0.029590128 0.026136473 0.021364298 -0.012959714 -0.06622655 0.08683928 0.08071622
-0.10530627 0.14283918 0.050507117 0.0645706 -0.0022631024 -0.08597353 0.17167261 0.0010218791
-0.10323408 0.07695537 -0.01612228 -0.12252195 0.027417803 0.04133056 -0.13523535 0.121600755
0.13991423 -0.038753852 0.08254416 0.032172844 0.015353648 -0.022482425 0.021674825 -0.060083076
0.099556416 0.086582646 -0.073460504 0.06517726 0.0755506 0.021106334 -0.010304893 -0.00051902304
-0.0879223 0.026373688 0.104644306 -0.031654164 -0.040631343 0.083919436 -0.051163457 -0.027548634
0.0002233444 -0.06383484 0.048309587 0.082639605 -0.09575 0.11525637 0.089562096 -0.029893843
0.03024563 -0.015425597 -0.03967956 -0.035954576 0.049575925 -0.030840967 0.0065184175 0.052984852
-0.019503137 -0.032462616 0.07230396 -0.031858154 0.039123494 0.0643683 -0.073806845 0.0041602314
0.05319231 -0.05353865 0.032019693 0.015916914 0.021406572 -0.0035687282 -0.07660451 0.00057913904
0.06541018 0.020269992 0.03554048 0.003154017 -0.040629663 -0.053362988 0.10744627 0.25325555
0.079754084 -0.10046248 -0.0024178429 0.15853074 0.00675661 0.060906652 0.011360549 -0.04362102

encoder.6.bias f4 [32]
00000000: 5629 b13c a792 57bc 8b77 b1bd 174c 5fbe
00000010: 577a b1bd 3d96 2d3d be35 113d 7980 81bd
00000020: 9bb6 2e3d b012 c4bd a202 28be 6a0f 2f3d
00000030: f59d 383d a86a fc3d 3d24 4c3e 5a63 b9bc
00000040: a891 be3d 07a4 d9bc bce1 36bc c16e f23d
00000050: 62ee 1abd 435f 393e d63d dcbc 4014 0d3d
00000060: 5ce9 833d f2ce 693d 9934 a13c dae8 c3bb
00000070: b3c4 d4bd 627a 433c 1332 7b3c 7b38 f2bb
0.021626156 -0.013157523 -0.08665379 -0.2180637 -0.086659126 0.042379607 0.035451643 -0.06323332
0.042654615 -0.09573877 -0.16407254 0.04273931 0.045072515 0.123250306 0.19935699 -0.022630382
0.093051255 -0.026567472 -0.011162218 0.11837531 -0.037824996 0.18102746 -0.026884954 0.03444314
0.06440994 0.057082124 0.0196784 -0.005978686 -0.1038908 0.011931034 0.015331763 -0.007391987

bottle_neck.0.conv_block.1.weight f4 [32, 32, 3, 3]
00000000: 3ce1 28bd d3d4 3ebd 9f44 cabd 4851 97bd
00000010: fe01 1cbc 2cbb 26bd 80ff a8bd f860 fcbd
00000020: 5ed6 a93d dee4 453c e12c 613d 1232 fbbd
00000030: 871a 21bc 900e e5bc 72eb da3c afa4 593b
00000040: 6106 143d 68c3 dabd 35b1 023e 488a 573d
00000050: 8082 ae3c 93a1 513d 59b0 0c3e 04e5 e63d
00000060: f7f9 d23d 588d 773a b3d6 5abc bf31 d23c
00000070: e55b 893d db9b ac3c ed14 dc3d da32 ca3d
00000080: 96a4 f53d 2caa 133d acb0 e13d bbbc 5ebd
00000090: a6db 0c3d f6b8 723d 485b 1a3e 76cb 1d3d
000000a0: cae4 f83d 44ea 073e 6c38 cd3c 6e81 773d
000000b0: 0e92 53bd 26d1 a23d 91ae 00bd 6968 0abe
000000c0: d4df 963d c4d8 9a3d 8c0a c2bd d52e 633d
000000d0: 323e 823b 2521 74bb 3420 6c3d 4edc 2f3b
000000e0: 2ff3 ebbb 2810 2a3d b805 c83c c1f6 ec3d
000000f0: 74eb 003d b4c5 94bd 6218 95bd 6e16 5a3d
00000100: 25a2 d93d 554c f03c ef87 ba3d 7b7b 43bd
00000110: 2a6c 853d 895d af3d 29ec 33bd fd61 08be
00000120: e21d 813d 0985 003e 15b0 7d3d 8a20 ec3d
00000130: a31d dfbc 1fc4 043d df47 32bc b5dc 2ebd
00000140: 1925 f8bd d87f 1d3d eeac 923b 64d1 42bd
00000150: a778 873d f036 8d3d d06e 38bb 2b03 533d
00000160: 6932 6fbd 4a54 2d3c 0a62 cc3d 46c7 d0bc
00000170: e61e afbd b409 e9ba e5ce 833c 28ac 59bd
00000180: 5b03 5e3d f05e d3bd 8503 763d 4dd9 853d
00000190: ce99 13be 4df8 883d 078f 483d db7b da3d
000001a0: 5667 1c3d e362 93bd f81d 0aba 4022 1abd
000001b0: cab5 d83c 573e ce3b ff12 ddbc 5307 5b3d
000001c0: e457 7fbd f356 d53d aff0 253d 0a0c 1dbe
000001d0: 8d7d d4bd 1fc1 e63d 9688 2c3d 12e8 f3bd
000001e0: 6f25 82bd b2ff b63c a7d8 9bbd 806c 853d
000001f0: 9ecb 86bd 6748 483d d883 94bc 3a7e 823d
00000200: 1e5c 9b3d 9f16 2bbe 89e4 70bc dd61 b9bd
00000210: c242 30bd f452 c73d 17bb d9bc 7f82 023d
00000220: 4bec fc3a 1d0f a6bd e800 e3bc 9673 c4bd
00000230: 288a ab3b 28aa 5ebc 6573 52bd 9d40 64bd
00000240: e593 bb3d 46cc fdbb de7d dd3c dc43 983d
00000250: 3532 a93d 6b43 5c3d d640 d73d 66ac aabb
00000260: 6efa 273d 9b88 3b3c 9b3f 86bd 0870 4fbe
00000270: 6775 32bc 2660 72bd 466b ddbc d3c9 dc3c
00000280: 2916 06be e80a 873d 8f07 c3bc 89ee 42bd
00000290: 0d47 25be 54fe 4f3d d9b7 3e3b 1928 d6bc
000002a0: 2d4d 903d 89b6 bcbd a57c 2fbc 6b0a 3abc
000002b0: 9458 79bb 3095 0fbe edd3 e83c bca2 b9bd
000002c0: 184e da3b d972 f13c 1fda 963b 35bf e73c
000002d0: 10ae 9a3d e6ac 183d 3fea d8bd fc89 ed3d
000002e0: 27c6 da3d 5a60 673d 37d6 003e 2880 47bd
000002f0: 8b32 af3b 040a a8bd e425 96bd 7b90 013e
00000300: 82ae 46bd f7e0 713d 498f cbbc 6f25 eebd
00000310: 8270 183d 7024 5cbc fe5d 843c 6d9b 66bd
00000320: e87b 7a3d 3d65 b3bd d516 f53c d9cb 8c3d
00000330: c7c8 3d3c 7507 e13d 3a29 51bd 7c11 573d
00000340: a263 8e3d 2f8f 483e 6d36 423a 293f 993c
00000350: b0c2 8f3d b140 a9bd 2dfe 0c3e 3277 9cbd
00000360: a712 2f3d 1bdf 2e3d c235 dbbc 64f0 f939
00000370: 1abb 873d 0069 dabc 042a a83b 8394 36bc
00000380: 61bf 403d 65d7 133d 3d50 2c3c f28a f73d
00000390: 3e6c aebc 5f16 8bbb 64d9 00bd 29bf 48bd
000003a0: 0ead 0e3e 26cc 40bd c343 313d 8c1c 15be
000003b0: 90f7 e83d 7ec5 c43d e5f4 c73d 7c9f ae3c
000003c0: 887f 8a3c 6ad7 8cbc 32f1 8e3d 0ed7 a6bd
000003d0: fdca 033d f940 e83d 0331 d7bd 6f65 bd39
000003e0: 728d aa3d ec1b 9a3d ca0d 803d e33a a0bd
000003f0: 49a2 b43c 38fd 053e 0045 86bd 4a78 abbc
-0.041230425 -0.046589684 -0.0987637 -0.0738855 -0.009521959 -0.040705845 -0.08251858 -0.12323183
0.082928404 0.012078492 0.05497444 -0.122654095 -0.009832985 -0.027961046 0.026723597 0.0033209731
0.036138896 -0.10681802 0.12762912 0.05262211 0.021302462 0.05117948 0.13739146 0.1127415
0.10301583 0.0009443364 -0.013356852 0.025658486 0.067069806 0.021070411 0.10746179 0.098729804
0.11994283 0.03605096 0.110200256 -0.054379206 0.03438916 0.059258424 0.15073884 0.038524114
0.12153013 0.13272959 0.025051318 0.06042617 -0.05165296 0.07950048 -0.03141648 -0.13516392
0.073669106 0.07560876 -0.09474668 0.055464584 0.0039746994 -0.00372512 0.0576479 0.0026834193
-0.0072006206 0.041519314 0.02441679 0.11570502 0.031474546 -0.072642714 -0.07280041 0.053244047
0.1062663 0.029333273 0.091079585 -0.047725182 0.06514771 0.08562762 -0.04392639 -0.1331863
0.06304528 0.12550749 0.061935503 0.11529644 -0.027235812 0.0324136 -0.010881393 -0.04269095
-0.12116451 0.038452 0.004476181 -0.04756297 0.066148095 0.06895244 -0.0028142221 0.051516693
-0.058397684 0.010579178 0.09979637 -0.025485646 -0.08550815 -0.0017779381 0.016089866 -0.053142697
0.05420242 -0.10320842 0.06006195 0.065355875 -0.1441414 0.066879846 0.048964527 0.10668155
0.038184486 -0.071965955 -0.0005268748 -0.03763032 0.026453871 0.0062940526 -0.026986597 0.05347378
-0.06233968 0.10416975 0.040512737 -0.15336624 -0.103755094 0.11267304 0.042122446 -0.11909498
-0.06354796 0.022338722 -0.076096825 0.06514835 -0.06581806 0.048897173 -0.018129274 0.06371732
0.07585929 -0.16707848 -0.0147029245 -0.09051869 -0.043032415 0.09732619 -0.02657847 0.031862732
0.0019296495 -0.081083514 -0.027710393 -0.09592359 0.0052349754 -0.013590373 -0.05137958 -0.055725683
0.09159068 -0.0077452986 0.027037557 0.07434818 0.08261529 0.053775232 0.10510413 -0.00520854
0.041010313 0.0114461435 -0.065551005 -0.2025758 -0.010892249 -0.059173726 -0.027028691 0.026951706
-0.13094391 0.06593877 -0.023807315 -0.047590766 -0.16140385 0.050779656 0.002910128 -0.026142167
0.0704597 -0.09214503 -0.01071087 -0.011355023 -0.0038047181 -0.14021754 0.028421367 -0.09064242
0.0066621415 0.029473709 0.004603639 0.028289417 0.07552731 0.037274264 -0.10591554 0.11598584
0.10682326 0.056488372 0.12581716 -0.048706204 0.0053466014 -0.08205035 -0.07331446 0.12652771
-0.048506267 0.059052434 -0.024848597 -0.11628234 0.03721667 -0.013436422 0.0161581 -0.05630057
0.061153322 -0.08759544 0.029918114 0.06874818 0.011583514 0.109877504 -0.051064707 0.05250691
0.06952597 0.1958587 0.0007408623 0.018706875 0.070195556 -0.08264292 0.13768835 -0.07639922
0.042742398 0.04269324 -0.026759032 0.00047672086 0.06627484 -0.026661396 0.005131962 -0.011143806
0.047057513 0.036094088 0.010517177 0.120870486 -0.021291848 -0.00424461 -0.03145732 -0.04901043
0.13933203 -0.04706969 0.043277513 -0.14561671 0.11375344 0.09607981 0.09763507 0.021316282
0.016906515 -0.017192561 0.06979598 -0.08146487 0.032176007 0.113405176 -0.10507395 0.00036124463
0.0832776 0.07524857 0.0625263 -0.07823732 0.02205004 0.13084877 -0.065561295 -0.020931382

bottle_neck.0.conv_block.2.weight f4 [32]
00000000: ca7b 6c3f 2ec7 6e3f ec46 843f 12f9 803f
00000010: c29d 603f 7eb7 763f 636f 873f 6645 883f
00000020: 3f1a 653f 7a6b 813f 2313 903f 2239 623f
00000030: ebfb 783f 2903 6e3f 52a7 873f c7e2 643f
00000040: 1cde 733f 138f 733f 4ad0 7e3f 6b3e 773f
00000050: 3561 6a3f 9b6f 583f 1c6e 863f f68c 853f
00000060: 335c 8f3f 5fd4 923f d4b4 7f3f 7304 883f
00000070: fefb 843f ec7c 6d3f 4d95 7f3f 18eb 603f
0.9237639 0.93272674 1.0334144 1.007601 0.8774072 0.96373737 1.0580868 1.0646179
0.89493173 1.0110924 1.125584 0.8836843 0.97259396 0.9297357 1.0597937 0.89408535
0.95260787 0.9514019 0.99536574 0.9657962 0.91554576 0.84545296 1.0502353 1.0433643
1.1200012 1.147106 0.99885297 1.0626358 1.0389402 0.9276874 0.9983719 0.87858725

bottle_neck.0.conv_block.2.bias f4 [32]
00000000: e321 29be 7d17 8fbe 917b 09be a1bd 16be
00000010: aee7 6abe a028 fbbd b74f d9bd 6059 9bbd
00000020: ebab 5dbe f414 52be 0738 f5bd 7595 61be
00000030: c9a7 90bd 837b 77be 97fb 07be 7a2c d4bd
00000040: bd74 f3bd 55fa 9dbe 5919 ecbd 9b8c 2dbd
00000050: 55ae b1be 2d39 97be f5f1 763b d59b 2cbe
00000060: c6b0 84be 84f0 6cbe 5675 65bd c057 24be
00000070: 305d 4ebe 92d6 f2bd 9ee8 4cbe 194c 02be
-0.16516833 -0.27947608 -0.13426043 -0.14720775 -0.22939941 -0.12263608 -0.106109075 -0.07585406
-0.21647613 -0.20515805 -0.11973577 -0.2202967 -0.070632525 -0.2416821 -0.13279568 -0.10360046
-0.118875004 -0.3085505 -0.11528272 -0.04237042 -0.34703317 -0.2953581 0.0037680839 -0.1685632
-0.25916117 -0.23138624 -0.056020103 -0.16049099 -0.20152736 -0.11857332 -0.20010611 -0.12724341

bottle_neck.0.conv_block.2.running_mean f4 [32]
00000000: 07d5 0c3f 11a7 c7bc c42a 833f 4205 803f
00000010: 4e6b 9d3e e02a ae3d b59d 85bf b177 f6bd
00000020: b06e c23f c796 223e 31dd f1bf e81a b2be
00000030: 1c41 a33f ad53 89bf fbe0 87bf 5046 89bf
00000040: ad85 8cbe cd62 c13d a058 bf3d 8aa1 03be
00000050: ea56 2cbf 4e80 843f 467a 15bf d512 34bf
00000060: 3d7a 88bf 3d19 7f3d 7c0e 80bf bcfa 4e3f
00000070: 188a f8be d46e 41bf 095f 733e 04e4 b1bf
0.55012554 -0.024371656 1.0247426 1.0001605 0.3074593 0.085042715 -1.0438753 -0.12034548
1.5190029 0.1587783 -1.8895627 -0.34786153 1.2754245 -1.0728661 -1.0615534 -1.0724583
-0.27445737 0.09442673 0.09343076 -0.12854591 -0.6732012 1.0351655 -0.583897 -0.70341235
-1.0662304 0.06227993 -1.000442 0.8085134 -0.48542857 -0.75559735 0.23766722 -1.389771

bottle_neck.0.conv_block.2.running_var f4 [32]
00000000: 4d9f 6b40 d01e 6340 4827 6340 8f22 4640
00000010: 1224 7440 66b3 3540 e04c 5140 4552 3c40
00000020: 806f 5940 e1c3 5f40 8796 7f40 8e34 3040
00000030: b81b 1e40 78ce a340 2054 6740 cb01 3d40
00000040: c028 3b40 91d3 2d40 eb24 4940 c091 1d40
00000050: 1b10 1e40 7358 9340 1cc9 4b40 af41 6a40
00000060: 78ea 6640 5fa9 8140 dd81 5b40 758b 3440
00000070: a596 1840 0df6 3040 be76 7d40 355a 3940
3.681598 3.5487556 3.5492725 3.0958593 3.8147016 2.8390746 3.270317 2.9425213
3.3974304 3.4963305 3.9935625 2.7532077 2.4704418 5.1189537 3.6145096 2.9532344
2.9243622 2.716038 3.1428783 2.4620209 2.469733 4.604547 3.1841497 3.660259
3.6080608 4.051925 3.4298012 2.8210118 2.3841946 2.7650177 3.9603724 2.8961308

bottle_neck.0.conv_block.5.weight f4 [32, 32, 3, 3]
00000000: 9875 fa3c 1772 4cbd 1853 7b3d 7e80 c3bd
00000010: 8dd8 9b3c 248e bdbc 139d 0e3c af12 11bd
00000020: 2ab1 633d 2f19 b73c 5ded c1bd b15d 01bd
00000030: 77a8 f5bc 0a54 193d d24c e83a 7adc 903b
00000040: 891d 833d 3fb9 25bc 2266 e03d 28ef 8abd
00000050: ecbf 2cbe 2bb1 c2bc ae67 aebd acc7 3c3d
00000060: 963a ca3d 4c42 d9bd 9803 2a3d 2ce7 963d
00000070: 5896 f53d 3f12 acbd a7e7 89bc 7de0 84bd
00000080: 01f9 d1bc 108a 823d 1d9c f33c c2c0 9c3d
00000090: 86f1 97bd 1baf ecbd e8df c93d 17bb e7bd
000000a0: 38f1 f3ba 433a 75bc ccea 1b3d 3a6c 363b
000000b0: 22ac e53d 1bcb 4f3d e3d9 013b db90 eabd
000000c0: 17c2 ebbd 2a33 04be 0586 01bb d918 eb3c
000000d0: 7d46 083e 1261 f93d e9c6 693d 6cef 813c
000000e0: 7f11 133b 4f6a 533c e3c2 8c3d 9c2e 81bc
000000f0: bfd3 70bd 8838 debd f430 cabb cfaa 9fbc
00000100: 1741 a03c d556 b13a c163 883d e286 6c3d
00000110: eb07 83bd 9079 63bc f5c1 c7bb 2b21 603d
00000120: 961f cbbd 8521 66bd f5d6 b93d 23b1 86bd
00000130: a1f5 d63d 7bba 863d 8941 aebd 6a16 103d
00000140: e1bb 0cbc a07c de3c d535 81bc 33e0 99bd
00000150: 33e9 f8bd 3aba 103d cd51 b0bd a6ba 8a3d
00000160: 0b3f e03d 49d7 dd3d 095f 0dbd f6fa bebc
00000170: fb25 56bc 74f7 1c3d 35d1 21be 860d 01be
00000180: 9def c33c 0fa5 e83c d346 ab3d a507 4a3c
00000190: f4bb cc3c 8e30 573d af9c 813d a17e 2b3e
000001a0: 5237 a93d 9be4 ab3c 2fa6 c83c a0a4 99bb
000001b0: 2caa 5cbc fbd3 61bc 03f5 853d c698 003e
000001c0: b20b 3c3d 6842 afbc 0247 3abd f91c 90bd
000001d0: 79ae 1c3d 5ffd 4dbd 4cec 523d b212 14bc
000001e0: 3f77 3b3c 9249 f4bd 4990 6fbb 1a97 2c3c
000001f0: 8d34 aa3c 5c71 b53c ddce 88bd 935d ff3d
00000200: fb2e d03c 46f9 e13d f8c0 f9bd f745 babd
00000210: 7173 1e3d 79b1 913d 12e0 403d eb13 65bc
00000220: 9dbd 603d edc9 3d3d 0757 743d 5dc4 89bd
00000230: b17b ccbd 3752 cabd 0dba 973d 2d01 38bd
00000240: 9cdb d83c 25fd 03bd 84c8 b73d 0bdf f6bd
00000250: 35b0 c4bd 2598 1abd 1934 0dbe f139 eabd
00000260: 31b6 9c3d ea7b 08bd 4667 13bd d8d4 33bd
00000270: c05d 76bd 7a38 b03c a037 583d 7baa 583d
00000280: 3494 e8bc 5364 c3bd b712 b83d f0a9 333d
00000290: 2e82 de3c cb9f 643c 9e6b b63d 31fa e43d
000002a0: 94cd e2bc d451 1a3c 36ff 78bd 058b 1bbc
000002b0: 6e9b 2e3d 13b5 8ebc 099a 833c 600d 4f3d
000002c0: 6a6f 713c d710 4e3d d7ac dcbd 6dbe cc3d
000002d0: 0273 83bd 0c94 13bc 8ad3 cdbd 5976 b7bd
000002e0: b815 8dbd 6994 22bc 74a6 393d 95ad c93c
000002f0: 7f24 4f3d 8d1a 1abd 8b00 d4bd 230f 0f3e
00000300: 680b adbd 3164 02be 2293 01bd d219 71bd
00000310: 173d 2bbd f98c 423d 1f65 2e3d 1209 adbd
00000320: 81ee d63c c71e ac3d 70c8 9f3d f2ae ff3c
00000330: 3fc7 293d 4124 12bc b9f4 c83d 587f 6b3d
00000340: 0eae dd3d 5bca 343d 1c67 c23d 56a4 203d
00000350: e221 1e3d 471e 8b3d 07db a73d baf6 7bbc
00000360: 1c1a ccbd 035c 7d3d 8393 033d af25 633d
00000370: 6c50 973e 7b09 103e 7c53 1ebe 4f01 383d
00000380: 6949 eabc a2b4 0e3e 9593 0abe 8a03 a0bd
00000390: 55dd 2c3e 03ef 59be 0081 043e 6932 c33d
000003a0: 127e 79be 0788 5a3c 3a5b 73bd c56f 213e
000003b0: 721b cfbc 7fc4 0bbd 062b 383d d179 82bd
000003c0: 0f52 8bbd 04cb 013e 27f9 ebbd 9baa 70bc
000003d0: 0584 633e 52d0 313d 7d31 9c3d 8a4d 0f3c
000003e0: b219 22be 4e50 053d b036 28be ebea 243d
000003f0: bcd5 90bc 893d 52bd 122d 0fbd 10a4 343b
0.030573651 -0.049913492 0.06135854 -0.09545992 0.019024158 -0.023139067 0.008704442 -0.03541821
0.05558888 0.022350876 -0.094691016 -0.03158349 -0.029987557 0.03743366 0.001772309 0.004420814
0.06402118 -0.010114967 0.1095698 -0.06783897 -0.16870087 -0.02376612 -0.08515869 0.04608886
0.09874456 -0.10608348 0.041507334 0.07368311 0.119915664 -0.08401918 -0.016834093 -0.0648813
-0.02563143 0.063739896 0.029737527 0.07653953 -0.07419114 -0.11556836 0.0985716 -0.113149814
-0.0018611318 -0.014967504 0.038065717 0.0027835504 0.11214472 0.050730806 0.0019813708 -0.1145341
-0.11511629 -0.12910143 -0.001976372 0.028698372 0.13308139 0.12176718 0.05707446 0.015861236
0.0022440848 0.012903764 0.06873109 -0.015769295 -0.058795687 -0.10850626 -0.0061703864 -0.019490628
0.019562287 0.0013529906 0.066596515 0.05774582 -0.063979946 -0.013883963 -0.0060961195 0.05471913
-0.09918134 -0.05618431 0.09074203 -0.06576755 0.10496069 0.06578537 -0.085085936 0.035177626
-0.008589716 0.027159035 -0.01577274 -0.07513466 -0.12153854 0.03533385 -0.08609352 0.067738816
0.109495245 0.10832078 -0.03451446 -0.023313027 -0.013070579 0.038321927 -0.15802462 -0.12602815
0.023917967 0.028399019 0.08363118 0.012330924 0.024991967 0.05253654 0.06328713 0.16747524
0.08262505 0.020983031 0.024493305 -0.0046888143 -0.0134683065 -0.01378345 0.06540873 0.12558278
0.04590959 -0.02139397 -0.045477875 -0.07036776 0.038252328 -0.05029046 0.05149488 -0.00903766
0.011442005 -0.11928095 -0.0036554507 0.010534072 0.020777011 0.02214878 -0.06680081 0.1246902
0.025413027 0.11033873 -0.12195009 -0.09095376 0.038684312 0.07113928 0.04708869 -0.0139818
0.05486833 0.04633515 0.05965331 -0.067269064 -0.0998453 -0.098789625 0.07408533 -0.044922996
0.026471905 -0.03222384 0.08973792 -0.12054261 -0.09603921 -0.037742753 -0.13789405 -0.11436833
0.07651938 -0.0333213 -0.03598716 -0.043904155 -0.060148 0.021511305 0.052787423 0.052896958
-0.028390981 -0.0954062 0.089879446 0.043863237 0.027161684 0.013954113 0.08907245 0.11180533
-0.027685918 0.009418923 -0.060790263 -0.009493594 0.042628698 -0.017420327 0.01606466 0.050549865
0.014736036 0.05030903 -0.10775154 0.09997258 -0.064184204 -0.009007465 -0.100501135 -0.0895812
-0.06888908 -0.009923079 0.045324758 0.024618903 0.050571915 -0.037622977 -0.10351666 0.13970618
-0.08449441 -0.12733532 -0.031634457 -0.058862515 -0.041806307 0.047497723 0.042576905 -0.08448996
0.026236774 0.08404308 0.07801902 0.03121135 0.04144978 -0.008919776 0.09812302 0.05749449
0.10824214 0.044138294 0.09492323 0.039219223 0.038606532 0.06792884 0.08196073 -0.015378648
-0.099659175 0.061855327 0.0321231 0.05545586 0.29553545 0.14066117 -0.15461534 0.044923123
-0.028599458 0.13936093 -0.1353286 -0.07813175 0.16881306 -0.21282582 0.12939835 0.09531099
-0.24364498 0.0133380955 -0.059413172 0.15765293 -0.025281642 -0.03412294 0.044962905 -0.06370891
-0.06802761 0.126751 -0.115221314 -0.014689113 0.2221833 0.04341156 0.07626627 0.008746514
-0.15830114 0.032547288 -0.16427112 0.040263098 -0.017680041 -0.051328216 -0.03495509 0.002756361

bottle_neck.0.conv_block.6.weight f4 [32]
00000000: 5f57 7a3f b5c5 713f 2931 6b3f 0582 7a3f
00000010: 7649 7b3f 8613 753f fe44 783f e776 6b3f
00000020: 74e7 573f e7d4 813f 7928 693f 13e1 8b3f
00000030: 9af7 713f b7c0 733f 1c97 8d3f 7ab1 7d3f
00000040: 3b62 633f 218f 723f 17ef 473f cb12 733f
00000050: 33d5 8f3f 64f4 873f c168 683f dab8 5e3f
00000060: d2ed 563f 61cf 823f c116 743f 943c 863f
00000070: 5471 583f b97a 963f a9b3 643f 6f50 793f
0.9778957 0.944423 0.9187189 0.97854644 0.9815897 0.95732915 0.96980274 0.91978306
0.84337544 1.0143098 0.9107738 1.0928062 0.94518435 0.95215935 1.106174 0.9909893
0.8882176 0.9474965 0.780992 0.9495055 1.1236938 1.0621457 0.9078484 0.8700081
0.83956635 1.0219537 0.9534722 1.0487237 0.84547925 1.1756202 0.8933664 0.97388357

bottle_neck.0.conv_block.6.bias f4 [32]
00000000: d52e ffbc 06fa 39bd 5e3e ebbc c503 c4bd
00000010: fe91 883d 0161 9fbd 66ad 9dbd 2d34 333c
00000020: 6352 26bd 2e95 d5bc 051b 4cbd 4a43 6abd
00000030: 017a df3c ff4f 12be e7e0 d03c 694e 23bd
00000040: d944 713d 317e 4abd 1eeb 1d3d 47da 0ebd
00000050: 3670 72bd b935 393d c95c e4bc a580 4f3d
00000060: 8544 0dbd 50e2 7cbd e8da 543d aa13 383d
00000070: 0bf6 733c 9856 e1bb fc97 87bc e673 3dbd
-0.031150261 -0.045404457 -0.028716262 -0.095710315 0.06668471 -0.07782174 -0.07699089 0.010937733
-0.040605914 -0.026072111 -0.049830455 -0.057193078 0.027279856 -0.14288329 0.025497867 -0.0398697
0.05890355 -0.04943675 0.038554303 -0.034876134 -0.059189044 0.04521725 -0.027876275 0.050659794
-0.034489173 -0.061739266 0.051966578 0.044940628 0.014890204 -0.006876778 -0.016551964 -0.046253107

bottle_neck.0.conv_block.6.running_mean f4 [32]
00000000: 7e35 823e 9617 573e 0172 0e3f 3a1f 033f
00000010: ddbb db3e c308 f5be ceec ef3e 6890 76be
00000020: 35d4 8dbf af58 d4be 923d 2e3f 9375 3abd
00000030: 022e 3b3e fe1e 91be 2c24 b93e 16ca e2bd
00000040: b85f 8abe cacf d23e 6d64 893f 2395 193f
00000050: 4e15 343f 4b6f 80bc 57b8 11bd f75d ca3e
00000060: 2603 c73e a1f7 1cbf 59b1 2a3f 057e e33e
00000070: ebee 97bc e445 823f 016b a83e b328 05bf
0.25431436 0.21005091 0.55642706 0.5121952 0.42916766 -0.47858247 0.46860355 -0.24078524
-1.1080385 -0.4147391 0.680627 -0.045522284 0.1827927 -0.28343958 0.3616041 -0.11073701
-0.27026153 0.41174155 1.0733773 0.5999319 0.7034501 -0.015678069 -0.03557619 0.39524814
0.3886959 -0.6131535 0.6667686 0.44432083 -0.018546542 1.0177579 0.32894138 -0.5201523

bottle_neck.0.conv_block.6.running_var f4 [32]
00000000: d8a2 bc3f 194e e33f bcf3 9a3f 8a48 cb3f
00000010: 6fab 963f 8e18 743f d8dd cb3f 37cd b33f
00000020: 8e20 fb3f 72c3 b03f a560 0140 9c9f 7e3f
00000030: a937 ba3f a866 cb3f b9b2 763f 4096 863f
00000040: d37c d93f b02d d03f 7701 cd3f 5d47 9a3f
00000050: 2070 403f 0b15 393f c6dd bc3f 835f fc3f
00000060: 456f bb3f 418b 693f 163d b43f 8567 5a3f
00000070: ff36 af3f 3614 7c3f 03fd 9f3f 3dbc aa3f
1.4737196 1.7758209 1.2105632 1.5881512 1.1771067 0.9534997 1.5927076 1.4047002
1.961931 1.3809645 2.0215237 0.99462295 1.4548236 1.5890703 0.9636646 1.0514603
1.6991218 1.6263943 1.6016072 1.2053028 0.7517109 0.72297734 1.475518 1.9716648
1.4643332 0.9122811 1.4081142 0.8531421 1.3688658 0.9846834 1.2499088 1.3338696

bottle_neck.1.conv_block.1.weight f4 [32, 32, 3, 3]
00000000: 0339 cebd 7122 48bd 4639 acbd 6cb7 bc3d
00000010: 7ba5 813d 3f90 0fbe 292a 1c3d a3b3 b4bd
00000020: 04a3 2cbc a05f bfbc 5fa5 b93b a233 d9bc
00000030: 77fe cf3d 280b a63d d684 acbc bcfe 903c
00000040: 786d 06bd 880e 88bd 5afd f83d 9026 1f3d
00000050: 28c6 773c ba9c 543c 41d8 933d a4e4 073e
00000060: ebc3 093d 0db1 cdbd 255c 013e 2c11 a73d
00000070: 88e8 053d 2f4a 1f3c aeb1 433d 0acb 58bd
00000080: 2ba2 d6bc 1ba9 f2bd 59fc 2bbd 6cb2 0fbe
00000090: 4816 b53c 7940 ab3c 959b 4c3d ebcf a2bd
000000a0: 7b90 3e3d 6220 643d 5da6 823d 4ea6 b7bc
000000b0: 0956 813d 4766 033e e4a1 f83d fa8a 60bd
000000c0: 63f3 0e3e c627 cf3d b5ca 0abc 72d9 1ebe
000000d0: f1a6 09be 1e24 24be 8a1b 9d3d fb0f cb3d
000000e0: 4c75 383d f3f3 8abd d250 5abc c985 a0bc
000000f0: 2449 87bd df9e b3bd b3b9 41bd 6512 9dbd
00000100: 08a2 5e3d 4fdd 2c3d 0408 33bd 4cf4 c73d
00000110: dc9b 4abd 2799 4e3d 2474 c33d 482e 1abd
00000120: 633c 4cbc 204e a33d bf23 a13d 4673 0cbd
00000130: 05e2 3bbd 8a8b ca3d f99f 01bd f7c7 2b3d
00000140: 8f84 88bd 40fa 423d 3ba3 ccbd 6a6f 9b3d
00000150: 331b af3a 81ac 90bc c0e6 9c3d c110 a6bd
00000160: ea46 39bd 91be 05be 091d 143e c02e 043c
00000170: 2454 9bbd 2de9 893d 6bf8 363d ab8e c2bd
00000180: 63ce b0bd bf29 10bd 60b7 74bc 5c6c adbd
00000190: 5b71 9abd ec87 4a3d 95d5 183e 1c42 5a3d
000001a0: 8bee 9d3d b1b5 f13d 5132 463e 2ec8 263d
000001b0: f5e2 653d e770 e13d b2f5 c63c 405b d4bd
000001c0: 9e4e 423b 8b3c 61bc e691 e23d 4f4c 843d
000001d0: 7eda 8d3d 6d18 a23c a5bf c6bc f7a7 dfbc
000001e0: dba3 373c e486 c03d 9e7e a8bd 7717 b6bd
000001f0: c8fd aebd 63fd 4fbe de2b 86bd 8f8c bdbc
00000200: 66c1 30bc 6160 673d 3c21 b23b c422 033d
00000210: 132e f73d 070b cebd f3ca fc3d af5a 1b3d
00000220: 6bb2 203c 8d03 77bd 59e8 2e3e 144d 593d
00000230: 487a fe3c 45dd 78bd 5e6c b0bd 0c87 15bc
00000240: 70f6 803d 111e fc3d 1dba 043e 0ce1 fabc
00000250: faca d23d cae0 ff3b 7172 693b a7e8 983d
00000260: 6f4a 993d 16cc ebbd 9f1e 05bd 855d 9ebd
00000270: cd24 ee3c b267 ba3d e823 b1bd 403b 1d3d
00000280: fea1 2fbd 4cec 2cbd 0db8 613d 1081 523b
00000290: 782b 5cbe 110c c43d a743 673d f627 af3d
000002a0: 6083 a8bd f13b aebd f88e 0abe b9e2 1abe
000002b0: 4c3a 60bd e743 cdbd ded8 f73c 99de cc3d
000002c0: e69a 5dbd 8a0e 40bd c879 4ebd 7f4e 06bb
000002d0: 4cd0 1d3e 8b66 6a3d d04e 9bbd 7cd1 c03d
000002e0: 7961 d7bd d80d 0d3e e3fb 183e 6677 073c
000002f0: c4a1 393d 1602 a83d 11aa 1dbe 8909 a1bd
00000300: 8291 aebc 46e7 ecbc 861c 173e a5a9 8e3d
00000310: ee6a cdbc dc22 f63d 49f6 e6bd 44e0 2a3d
00000320: 68b7 673d 0cb0 a6bb 12ef e13c bf97 ffbd
00000330: 4ac4 0ebd bb48 1a3d 400a babc 12aa dc3d
00000340: b320 803d 558f a63c 6d39 30bd 4e48 eabd
00000350: 1995 0f3e 252b 92bd e550 213c 2ea8 633c
00000360: 08a9 aabb 47c3 01bd c634 693d 3045 503d
00000370: a6d1 b13b c831 43bd 7e86 4fb9 8f1c 623d
00000380: 92b3 06bd b01f db3d e0d9 f5bc 29fa c43c
00000390: 50d0 7ebd dbdb 86bd d76c 193e 769d 693c
000003a0: b0ba 8f3d 403a d9bd f059 183e 0587 2a3d
000003b0: abba f83d 858d 063e 9fdd fcbd 7bec 0a3c
000003c0: a08a ad3d 25ba 993c c5c6 7b3d 5c94 b1bd
000003d0: 88f9 1f3d 8fa7 8b3c a2ea 14be 081e f9bd
000003e0: cebb 22bd 6704 143d 133b 0dbe 7d23 47bb
000003f0: d84e 263c 9705 70bd 018b 61bc af89 593d
-0.10069468 -0.04886097 -0.084093615 0.092146724 0.06330391 -0.1401987 0.038126145 -0.088233255
-0.010536913 -0.023361027 0.0056654657 -0.026513878 0.10155957 0.08107597 -0.021059435 0.017699592
-0.03281924 -0.066433966 0.12157698 0.038855135 0.015122928 0.01297682 0.072189815 0.13270813
0.033634108 -0.100435354 0.12632807 0.08157572 0.032692462 0.009722277 0.04777687 -0.05292801
-0.026200375 -0.118486606 -0.041988704 -0.14032906 0.022105351 0.020904766 0.049953062 -0.079498135
0.046524506 0.055694945 0.063793875 -0.022418167 0.06315238 0.12831984 0.12140253 -0.05482004
0.13960032 0.10115008 -0.008471181 -0.15512636 -0.1344259 -0.16029403 0.07671268 0.099151574
0.045033738 -0.06784811 -0.013324933 -0.019595044 -0.06605747 -0.08770537 -0.047296237 -0.07669524
0.054353744 0.042203244 -0.043708816 0.09763393 -0.049465045 0.050439026 0.095436364 -0.037641793
-0.012465569 0.079738855 0.07868146 -0.03428962 -0.045869846 0.09889896 -0.031646702 0.04193875
-0.066659085 0.04760194 -0.09992071 0.0758961 0.0013359546 -0.017660381 0.076611996 -0.08108664
-0.045233645 -0.13060977 0.14464201 0.008067787 -0.07584408 0.06733928 0.044670504 -0.09499868
-0.08633115 -0.035196062 -0.014936298 -0.084679335 -0.07541152 0.04944603 0.14925225 0.053285703
0.07711514 0.11802233 0.19355132 0.04071825 0.056124646 0.110078625 0.024287079 -0.10368967
0.002964891 -0.013747345 0.11062984 0.06459867 0.0692644 0.019787038 -0.024261305 -0.027301772
0.0112085 0.09400728 -0.08227275 -0.08891194 -0.08544499 -0.20311503 -0.06551336 -0.023138313
-0.010788297 0.0564884 0.0054360908 0.032015577 0.12069335 -0.10060697 0.12343397 0.03792828
0.009808163 -0.06030612 0.17080821 0.053052023 0.031064168 -0.060757894 -0.086144194 -0.009126436
0.06297004 0.12310422 0.12961622 -0.030624889 0.10292621 0.0078087794 0.003562119 0.0746625
0.074849 -0.11513536 -0.032499906 -0.07732681 0.029070282 0.091018096 -0.08649427 0.038386583
-0.042879097 -0.042217538 0.055107165 0.0032120384 -0.21500957 0.09572614 0.056461003 0.08552544
-0.08228183 -0.08507527 -0.13531101 -0.1512555 -0.054743096 -0.10022717 0.030254778 0.10003395
-0.0541028 -0.046888866 -0.05040911 -0.0020493565 0.1541149 0.0572267 -0.07583392 0.09414956
-0.10516638 0.13774812 0.14939837 0.008268213 0.045320287 0.08203523 -0.15396906 -0.07863147
-0.021309618 -0.028918874 0.14756975 0.06965951 -0.025075402 0.12018368 -0.11277444 0.041717783
0.056571394 -0.0050869044 0.027579818 -0.12480115 -0.034855165 0.037667017 -0.022709966 0.10774626
0.06256237 0.020332018 -0.043023515 -0.11439572 0.1402172 -0.071371354 0.009845947 0.013895078
-0.0052081384 -0.03168037 0.056935094 0.050847232 0.0054266034 -0.047654897 -0.0001979116 0.055203017
-0.032886095 0.10699403 -0.030011117 0.024045067 -0.06221038 -0.06584903 0.14982925 0.014258733
0.0701803 -0.106068134 0.14878058 0.04163267 0.12144979 0.13139923 -0.12346958 0.008479233
0.08473706 0.018765518 0.06146886 -0.086708754 0.03905633 0.017047672 -0.1454263 -0.12163931
-0.039729886 0.03613701 -0.13792066 -0.0030386143 0.010150634 -0.05859908 -0.013766051 0.05310982

bottle_neck.1.conv_block.2.weight f4 [32]
00000000: 3829 8d3f 545b 773f b7d1 6b3f 3ac0 833f
00000010: 32a2 733f c76c 633f 38b8 683f 3849 6a3f
00000020: 6bb8 663f 3435 893f 494c 983f 09e0 683f
00000030: 9389 7e3f df97 6a3f 9c88 753f 76af 713f
00000040: d9aa 803f 31c9 753f 9fe6 8f3f 3ad7 863f
00000050: a27a 783f ba9c 823f 07dc 7c3f 2090 723f
00000060: a3f2 6f3f a99a 823f 60d9 793f 5102 5a3f
00000070: 06d6 6a3f 450c 7a3f 0dba 513f 6206 803f
1.1028204 0.9662373 0.92116874 1.0293038 0.95169365 0.88837856 0.90906096 0.9151797
0.9012515 1.0719361 1.189828 0.9096685 0.9942867 0.91637987 0.95911574 0.9440836
1.0052139 0.9601012 1.1242255 1.0534432 0.9706212 1.0204079 0.98773235 0.9475117
0.9372961 1.0203449 0.9759731 0.85159785 0.91732824 0.9767497 0.81924516 1.0001948

bottle_neck.1.conv_block.2.bias f4 [32]
00000000: deba e7bc 263d 31be e2f2 96be 416e efbd
00000010: 218e 01be 7e47 cebe bcce 87be f7a6 adbe
00000020: 330f 57be 898e 7cbe 8eae c4be 5faa 49be
00000030: c40b e0be 7f95 a5be 9d33 b5be 2545 49be
00000040: 7bf3 3bbe d2bf 91be 6141 ecbd 8301 52be
00000050: 802a 2bbe 344f 6ebe afc9 82be 48de 21be
00000060: 85e8 95be f2b6 15be d0e7 6abe 04e8 b6be
00000070: 5fe2 0dbe b268 8bbe 11b3 b4be a240 00be
-0.028287347 -0.17308483 -0.2948218 -0.11690951 -0.12651874 -0.4028892 -0.26524913 -0.33916447
-0.21001892 -0.24663748 -0.38414425 -0.19693898 -0.43758976 -0.3234062 -0.3539094 -0.19655283
-0.18354599 -0.2846666 -0.115359075 -0.20508389 -0.16715431 -0.23272401 -0.25544497 -0.1580745
-0.2927896 -0.1462057 -0.22939992 -0.3572389 -0.13855885 -0.27228314 -0.35292867 -0.12524655

bottle_neck.1.conv_block.2.running_mean f4 [32]
00000000: 7f07 a83e adbe bd3f 1547 96bf 6d7d 19be
00000010: 0879 94bf d961 a8be 1fa4 933f 9639 07bf
00000020: 9aff f73e 2f6b 1dbf f0a0 9a3f 8eec ff3d
00000030: 681f 60bf 9f98 a7bf 0bc3 ac3f b129 54bf
00000040: 788a 89bd 82ae e53e 5438 e13f a120 22bf
00000050: bd16 823f f5ec 773e 2033 b83e ce41 973f
00000060: 45c7 ab3e 1a54 cc3e 63df a03f 14e0 07be
00000070: 87db 663f 5927 adbd 34ce a5be 0bb1 ccbf
0.3281822 1.4823815 -1.1740443 -0.14989252 -1.1599436 -0.32887152 1.1534461 -0.52822244
0.48437196 -0.61491674 1.2080364 0.12496291 -0.8754792 -1.3093451 1.3497022 -0.82876116
-0.06715864 0.448597 1.7595315 -0.6333104 1.0163189 0.24211486 0.35976505 1.1816957
0.33550468 0.39907914 1.2568172 -0.13269073 0.9017872 -0.084547706 -0.32383883 -1.5991529

bottle_neck.1.conv_block.2.running_var f4 [32]
00000000: 6817 2941 81e1 2541 e862 7841 eae5 4941
00000010: 3f96 7041 e9c2 1f41 ef72 1b41 7c5d 1a41
00000020: d567 5c41 a079 9541 e144 2b41 b1a2 4741
00000030: c9b4 2641 706b 3041 a4d8 7141 f65c 2341
00000040: f14d 3b41 54a3 6041 558e 8a41 d642 0c41
00000050: aaf1 3141 80bf 3c41 39cc 3641 9689 2b41
00000060: dbcf 3441 c072 8441 f051 5f41 7cb8 3e41
00000070: d18a 6341 3324 0c41 29ab 1f41 eec6 5d41
10.568214 10.367555 15.524147 12.618631 15.036681 9.9850855 9.71556 9.647823
13.77535 18.684387 10.704316 12.47722 10.419137 11.02623 15.115391 10.210196
11.706529 14.039875 17.319498 8.766317 11.1215 11.796753 11.424859 10.72109
11.300746 16.55603 13.957504 11.92004 14.221391 8.758838 9.979287 13.861067

bottle_neck.1.conv_block.5.weight f4 [32, 32, 3, 3]
00000000: 8016 5ebd d517 ae3a f3d8 2a3c b85d 08be
00000010: 2c0a 0a3e ef77 2c3d f995 4b3d 1a91 94bd
00000020: b130 2f3d 316f 61bd 16d5 c43d 9a7b 933c
00000030: 6e99 503c ed97 abbc dc15 c13d 144c a33d
00000040: c9fb 083e 2992 573e f860 3d3d 79e7 adbd
00000050: 1d89 a5bd 497e e7bc 19e4 0db9 d323 a1bd
00000060: d008 0ebd 21d9 acbd bc6f 89bd d72a 9dbc
00000070: ebed 1ebe 34ae d9bd 522f ddbd 4b37 dbbd
00000080: 4cc8 b03c 26a3 99bd bf5b 26be c030 68bd
00000090: 338e a0bd 7f7d 0bbd d0db 9d3a a24c 183c
000000a0: ce24 aabc 37ab 06bd f0dc 2d3d 0587 afbc
000000b0: 4a08 d8bb 64e9 79bd 101f 1e3c a32c e1bc
000000c0: 65f3 aabd e148 45bd d6d1 07bd 6e13 933d
000000d0: b6a9 8c3d 75f2 553d ff47 0abd 83d8 bb3d
000000e0: bacd 81bc 75c6 563e 6822 093c 07ca c13d
000000f0: 307d 093d c3aa b9bd 2364 77bd c9ba cc3c
00000100: 6f75 123e 0019 9a3d e28c 9839 af74 443d
00000110: 0f5b 8539 5b83 5a3d 8809 2b3d d8b8 193e
00000120: d15b d0bc 2c85 273c fef4 073c 209a ad3d
00000130: bec9 433c e303 863d e993 79bd 7dcb fdbd
00000140: b421 c2bd 698b 01bc b892 4dbc 7432 4ebd
00000150: 8a72 363d 5b5b 0e3c dab7 b6bc 7443 343e
00000160: e8e9 013e 4e2a 1e3d cee6 22bd a2ba a63d
00000170: b0de 9b3c 0b1a ed3d 3cf1 b1bb 437f 2a3d
00000180: db6d fcbd 2b18 b9bd c425 943d ee47 553d
00000190: 3f2c 863d 0efd 163c 9049 ccbb ea17 cbbc
000001a0: 8555 c3bc a1f8 49bc ef88 85bd 6b44 78bc
000001b0: e815 99bd b6a2 0b3e 7c6c 47b9 9ad9 f9bd
000001c0: 1f20 abbd 59d9 e3bd bd6c 423b 6dfd 5c3c
000001d0: 24c2 653d 5475 86bd 2195 483d 832f a33d
000001e0: dea1 87bc df39 02bd 910f 37bd 2bfb 613c
000001f0: 4abe 17ba 68d4 d2bb d48e 603c b2db c93b
00000200: b4fe 883c 24d8 b0bd d73c 65bd 735e d7bc
00000210: cbbe 973c 9941 863d 9757 113c a7a6 7b3d
00000220: f401 0dbe ac51 093d 075a 0fbd 3a7d 7fbd
00000230: 4d72 3cbd f9d5 c7bd 2f89 803c d29b b5bd
00000240: 6452 99bc 5574 8e3d c0ab de3d 43ed ddbb
00000250: aa6e 323d b618 c23d fafa 53bd 173c 8abd
00000260: 4a75 ad3c 69bf eb3c 9b6a 5b3c 1613 fb3a
00000270: 51cd b03d f715 b63d 21a8 463d d8b4 7ebd
00000280: 769a 83bd ef47 803d 8fba e83d fce9 453d
00000290: 048a b63d 5ffd 213c 4671 87bd b3ac 93bd
000002a0: dfdd b439 4752 15be 5dd6 87bc 047a 083e
000002b0: b44a 0e3d dc10 89bc d529 6b3d ce4d b5bd
000002c0: 2c95 58bd ec8d dcbd fced 273e 0623 653d
000002d0: b3e1 2dbd 6df6 1cbd 8ba5 08be e32c b1bb
000002e0: 91df 08bc a5c8 593d 1cf1 9ebd 50cf f1bd
000002f0: d7ea 2abd 1f32 33bd 3e75 22be ee86 abbc
00000300: 2c7b ce3d 5a7d ad3d 3283 443d 6b7c b33d
00000310: f690 abbd 1fb4 4ebd 6934 05bd 26df a03d
00000320: 077a 26bd d843 0ebd 9c85 10bd eea3 e9bd
00000330: 6d85 b03d 138f 943d fb01 8d3b 9295 85bd
00000340: 463b d9bd 7ccc 0abd b5d5 da3c 009f a6bc
00000350: 702c 9abc 03cc 9f3d f0b7 803d a542 ebbd
00000360: 83ba 993d 25e6 27bd 8c18 b8bc 4ad7 2b3e
00000370: 1d5e 81bd 1a9e a13d 9f7c 9bbd f560 ebbd
00000380: ca4d a3bc d80e 993d ab11 95bc f852 1b3e
00000390: eee4 563b af98 173e 94cb a43c 4dc1 ddbd
000003a0: 91ff febd 8c64 1ebd 1582 123d 6132 4cb9
000003b0: 24bd 2bbd 1a65 2b3e 304e 373e 83fc 6d3c
000003c0: f5b7 01bd abe3 bdbb 30f8 e6bd 23a2 e03b
000003d0: a75b fa3b 6540 b0bc b3bc 7d3d f024 0a3e
000003e0: c71a 8ebd 445b c8bd 255b a63d a4dc 03be
000003f0: d353 253e 9b74 fc3c a16a b0bd 68a9 f03a
-0.054220676 0.0013282249 0.010427701 -0.13317001 0.13480443 0.042106565 0.049703572 -0.072542384
0.042771045 -0.05503768 0.096109554 0.018003274 0.012731893 -0.020946467 0.094279975 0.07973495
0.13377298 0.2105185 0.046235055 -0.084914155 -0.08082793 -0.02825846 -0.00013531781 -0.07868161
-0.034676373 -0.084398516 -0.06710765 -0.019185467 -0.15520446 -0.1062893 -0.10800041 -0.10703906
0.021579884 -0.07501821 -0.16245936 -0.056687117 -0.07839622 -0.03405523 0.0012043659 0.009295614
-0.020769503 -0.032878127 0.04244703 -0.021426687 -0.006592785 -0.061013594 0.009650961 -0.027487105
-0.08347205 -0.048165206 -0.0331591 0.0718144 0.06868307 0.05223318 -0.033760067 0.09172156
-0.015845168 0.20974143 0.0083700195 0.09462362 0.033566654 -0.09065773 -0.060398232 0.02499141
0.1430261 0.075242996 0.00029096665 0.04796284 0.0002543558 0.053347927 0.041757137 0.15011919
-0.025434406 0.010224622 0.008298157 0.08476663 0.011949955 0.0654371 -0.060932074 -0.12392328
-0.094790846 -0.007906773 -0.0125471875 -0.050341085 0.044542827 0.008688773 -0.022304464 0.17603856
0.12686884 0.038614564 -0.039770894 0.08141066 0.019027084 0.11577233 -0.0054303687 0.041625272
-0.12325641 -0.09037813 0.07233766 0.05207055 0.06551408 0.009215606 -0.0062343553 -0.024791677
-0.02384449 -0.012327344 -0.06520259 -0.015153031 -0.074748814 0.13636288 -0.00019018532 -0.12199707
-0.08355736 -0.1112544 0.0029666864 0.013488156 0.05609335 -0.06565347 0.048970345 0.079680465
-0.016556676 -0.03179347 -0.04469258 0.013792793 -0.0005788548 -0.006434012 0.013705928 0.006160223
0.016723014 -0.086349756 -0.055966225 -0.026290154 0.018523594 0.065554805 0.008870981 0.06143823
-0.13770276 0.033525154 -0.034997966 -0.062375285 -0.046007443 -0.09757609 0.015690414 -0.08867611
-0.018716045 0.06955782 0.108726025 -0.0067726686 0.04356257 0.094773695 -0.05175302 -0.067497425
0.021174092 0.028777795 0.013392116 0.0019155468 0.08632911 0.08890908 0.048500184 -0.062184185
-0.064259455 0.0626372 0.11363708 0.048318848 0.08913043 0.0098870685 -0.06613402 -0.07210674
0.00034497582 -0.14582168 -0.016581709 0.13327795 0.03473921 -0.016731672 0.05741294 -0.08852731
-0.052876636 -0.10769257 0.16399378 0.055941604 -0.04245157 -0.038320947 -0.133444 -0.0054069622
-0.008354084 0.053169865 -0.07760832 -0.1180712 -0.041727867 -0.04374897 -0.15865037 -0.020938363
0.10082087 0.084711745 0.04797668 0.08763965 -0.083772585 -0.050464746 -0.032520685 0.07855062
-0.040643718 -0.03473267 -0.03528367 -0.1140822 0.08619199 0.07253852 0.0043032146 -0.06522669
-0.10607009 -0.033886418 0.026713232 -0.020339489 -0.018820018 0.07802584 0.06285083 -0.11487321
0.075062774 -0.040990967 -0.022472642 0.16781345 -0.06316779 0.078914836 -0.07592129 -0.114931025
-0.019934554 0.07473534 -0.018196901 0.15168369 0.0032790261 0.14804338 0.020116605 -0.10827885
-0.12451089 -0.038670108 0.035768587 -0.00019473724 -0.041928425 0.16737786 0.1790092 0.0145255355
-0.031669576 -0.0057949624 -0.11277807 0.0068552657 0.0076403203 -0.02151508 0.061947536 0.13490653
-0.06938701 -0.097830325 0.08122853 -0.12877136 0.16145258 0.03081732 -0.08614088 0.0018361034
