models/netG_epoch_40.pth (torch_old, 358091 bytes, 49 tensors)

encoder.0.weight f4 [8, 1, 3, 3]
0	0xbe06c8e4	-0.13162571
1	0x3cfe19f3	0.031018233
2	0x3dbc39f6	0.09190743
3	0xbe386aa0	-0.18009424
4	0x3d67c6ef	0.056586202
5	0x3d6f9833	0.058494758
6	0xbd17cdd1	-0.037061516
7	0xbe0dbae5	-0.13840826
8	0xbe5c70c7	-0.21527396
9	0x3cd432f0	0.025903195
10	0x3dc38ee1	0.09548736
11	0x3a307c37	0.00067323766
12	0x3e3496dd	0.17635675
13	0x3e93d743	0.2887517
14	0xbb13c085	-0.002254517
15	0x3da9cb72	0.08290757
16	0x3df8d671	0.121502765
17	0x3d2f5dbb	0.042813998
18	0x3da6b013	0.08139052
19	0x3deeaa8d	0.11653624
20	0x3cdc8e0a	0.026923198
21	0x3dca6f33	0.09884491
22	0xb8e69007	-0.00010994082
23	0xbdac17ff	-0.084030144
24	0x3d17982e	0.037010364
25	0xbdb13fad	-0.08654723
26	0xbe84e234	-0.2595383
27	0x3c6567e1	0.014001817
28	0x3dd8aa39	0.105793424
29	0x3e0708e4	0.13186985
30	0xbd885f1c	-0.06658766
31	0x3d84b275	0.064793505
32	0x3da60ea0	0.08108258
33	0xbe31f351	-0.17377974
34	0xbe004b63	-0.12528758
35	0xbe74588e	-0.23861906
36	0xbd0895b8	-0.033345908
37	0x3dbd2894	0.09236255
38	0x3dfb970f	0.122846715
39	0xbe7c797e	-0.2465572
40	0xbe36e397	-0.17860256
41	0xbe85f7f9	-0.2616575
42	0x3cfc669e	0.03081065
43	0x3d804e04	0.0626488
44	0xbd061329	-0.032733116
45	0x3d9ebf4b	0.0775133
46	0x3d23e37f	0.04001188
47	0xbe193673	-0.14962177
48	0x3a2c6b10	0.0006577233
49	0xbe435198	-0.19074094
50	0xbe3ba65b	-0.18325178
51	0xbe0faf0a	-0.14031616
52	0xbe2e8cbb	-0.17045872
53	0x3b4c31d3	0.0031157627
54	0x3d82795d	0.063708045
55	0xbd5b92e1	-0.05360687
56	0xbe5c2548	-0.21498597
57	0x3d8ca8f7	0.06868165
58	0x3dce7c76	0.10082333
59	0xbd5db9fa	-0.05413244
60	0x3cf0e843	0.029407626
61	0x3e39fb6c	0.18162316
62	0x3e0947c3	0.13406281
63	0xbdf77821	-0.1208346
64	0xbd47c3d2	-0.048770733
65	0x3d8d7648	0.06907326
66	0xbc630e5d	-0.013858405
67	0x3da6beaf	0.08141839
68	0x3f0c7772	0.5486976
69	0xbc8254ee	-0.015909638
70	0xbc57b07b	-0.013164635
71	0x3c28a09d	0.010292199

encoder.0.bias f4 [8]
0	0xbe05bd32	-0.13060454
1	0xbe79f8eb	-0.24411361
2	0x3e369bdd	0.17832895
3	0x3e367d64	0.1782127
4	0xbe83a3b3	-0.2571083
5	0x3df68984	0.12037948
6	0xbe0a6cb8	-0.13518035
7	0x3df847b5	0.12123052

encoder.3.weight f4 [16, 8, 3, 3]
0	0xbe95603e	-0.2917499
1	0xbed4ed6e	-0.41587394
2	0xbec563ed	-0.385528
3	0xbe28cecb	-0.16485135
4	0xbe905990	-0.2819333
5	0xbe694673	-0.2278078
6	0xbd9ba0d5	-0.07599036
7	0xbe1a8bf2	-0.15092447
8	0xbdeddbe7	-0.11614209
9	0x3d7eb657	0.06218561
10	0x3df6e95b	0.12056228
11	0x3e4b465a	0.19851056
12	0x3c8747b2	0.01651368
13	0x3cece568	0.028917983
14	0x3da238ec	0.07921013
15	0x3cf1622d	0.02946576
16	0xbd102b4b	-0.035197537
17	0xbd49a262	-0.049227126
18	0x3d86821e	0.06567787
19	0x3e17afe5	0.14813192
20	0x3e08dc10	0.13365197
21	0x3d390569	0.045171175
22	0x3dbe2f41	0.09286357
23	0x3e224c76	0.1584948
24	0x3d103a3a	0.03521178
25	0xbcca9600	-0.024729729
26	0x3bd75f50	0.0065726414
27	0xbc0024d7	-0.007821283
28	0xbcd404b3	-0.025881147
29	0xbb4868db	-0.0030580077
30	0x3d1e500b	0.038650554
31	0x3cd07f2f	0.02545127
32	0xbc55bc79	-0.013045424
33	0xbde0a003	-0.1096802
34	0xbd90ff6a	-0.07079966
35	0xbcf81548	-0.030283585
36	0xbdf83e60	-0.12121272
37	0xbeb94166	-0.36182708
38	0xbedf1026	-0.43567008
39	0xbdf537ea	-0.119735554
40	0xbdfbefa7	-0.123015694
41	0xbe3b099d	-0.18265386
42	0xbd4262b2	-0.047457404
43	0xbd8e1369	-0.06937296
44	0xbdd6924b	-0.10477122
45	0xbe0c1143	-0.1367846
46	0xbe9671af	-0.2938361
47	0xbe992c80	-0.29916763
48	0xbdd993e9	-0.10623915
49	0xbe0e9f16	-0.13927874
50	0xbe5f2b83	-0.21793942
51	0x3ddd95ba	0.10819574
52	0xbd307e90	-0.04308945
53	0xbe107de2	-0.1411052
54	0x3cb19935	0.0216795
55	0x3d140abf	0.03614306
56	0x3d56e389	0.05246309
57	0xbd62e94f	-0.05539828
58	0xbdba7759	-0.09104795
59	0xbd240fa7	-0.04005399
60	0xbd70168a	-0.058615245
61	0xbd2c7a38	-0.042108744
62	0x3cf5a7e2	0.02998728
63	0x3e037693	0.12838201
64	0x3e430201	0.19043733
65	0x3e32f43f	0.17475985
66	0x3dcebd6e	0.100947246
67	0x3e209dfc	0.15685266
68	0xbadc900e	-0.00168276
69	0xbdabf7eb	-0.08396896
70	0xbd516f2b	-0.05113141
71	0xbd9f8bd1	-0.0779034
72	0x3bfcf114	0.0077191684
73	0xbdac1039	-0.08401532
74	0xbc8ff212	-0.017571483
75	0xbe4fc58a	-0.20290199
76	0xbe4b8eef	-0.19878744
77	0xbe09c8d9	-0.13455524
78	0xbdb70160	-0.08935809
79	0xbe43f1ca	-0.19135204
80	0xbe567b93	-0.20945577
81	0x3d9347ca	0.07191427
82	0x3d1a7548	0.037709504
83	0xbc82ba12	-0.015957866
84	0x3c7c8b57	0.015414081
85	0xb8d10390	-9.96656e-05
86	0xbcaf131e	-0.02137142
87	0x3d7e7055	0.062118847
88	0x3e06421e	0.13111159
89	0x3de4ef0c	0.11178407
90	0x3cad22a1	0.021134676
91	0x3dc45492	0.09586443
92	0x3dfd1a43	0.12358525
93	0xbd83999b	-0.06425782
94	0xbc07d40d	-0.008290303
95	0xbcc7e3d6	-0.024400633
96	0xbd758c8e	-0.059948497
97	0xbda5d425	-0.08097104
98	0xba9ac440	-0.0011807755
99	0xbd5eba0d	-0.05437665
100	0xbe26eb5c	-0.1630072
101	0xbe156b52	-0.1459172
102	0xba6a1371	-0.00089292886
103	0xbd88cb11	-0.06679357
104	0xbe4705b4	-0.1943577
105	0xbd9acf59	-0.0755908
106	0xbd22a7c4	-0.039710775
107	0x3c23f400	0.010006905
108	0xbdbd64b6	-0.09247725
109	0xbe1504e2	-0.14552644
110	0xbd36744c	-0.044544503
111	0xbc3a8bfb	-0.011385913
112	0xbe75f839	-0.2402047
113	0xbe1477bb	-0.14498799
114	0xbdd6e86a	-0.10493548
115	0xbe2c101b	-0.16803019
116	0xbe2b01e3	-0.16699938
117	0xbdbf8b80	-0.093527794
118	0xbd80c097	-0.062867336
119	0x3ca76bed	0.020437205
120	0xbe9dbd6d	-0.30808583
121	0xbeb1d2a2	-0.34731013
122	0xbe3f8fa1	-0.18707134
123	0xbeb13313	-0.3460928
124	0xbe9b147e	-0.30289072
125	0xbea46130	-0.32105398
126	0x3d3f04e8	0.04663554
127	0x3b8f3415	0.0043702223
128	0xbd559cf2	-0.052151628
129	0x3e000238	0.12500846
130	0x3e5412ee	0.20710346
131	0x3ddba950	0.10725653
132	0x3e55796d	0.20847102
133	0x3e5f74f5	0.2182196
134	0x3df68af2	0.120382205
135	0xbb5dad1e	-0.003382511
136	0xba90267d	-0.0010997799
137	0xbd8635fb	-0.06553265
138	0xbcdc8301	-0.026917936
139	0x3d7013a9	0.0586125
140	0xbd61130f	-0.054949816
141	0x3e10141a	0.14070168
142	0x3e1f4f0a	0.15557495
143	0xbc47fb51	-0.012205915
144	0xbdf14d31	-0.11782301
145	0xbc2122e0	-0.009834975
146	0x3d1e5ae0	0.038660884
147	0xbdcb3579	-0.099223085
148	0x3d847989	0.064684935
149	0x3e06c144	0.13159662
150	0xbd0dbc23	-0.03460325
151	0x3ca356ea	0.019938905
152	0x3e0057bf	0.12533472
153	0x3c65fa14	0.014036674
154	0x3c46a980	0.012125373
155	0xbda250a6	-0.07925539
156	0x3dbbb637	0.09165614
157	0x3e0607c3	0.13088898
158	0xbcdb0519	-0.02673583
159	0x3de2c4d5	0.11072699
160	0x3dd85c72	0.105645075
161	0xbd1837fc	-0.037162766
162	0xbd846721	-0.06464983
163	0x3d9778c2	0.073960796
164	0x3e3d826b	0.18506782
165	0xbe06a81f	-0.1315007
166	0xbb9a7d89	-0.004714672
167	0x3de3723b	0.11105772
168	0x3bc9e02e	0.0061607575
169	0x3d3fb0c9	0.046799455
170	0xbcc4674f	-0.023975043
171	0xbe9ddcca	-0.3083251
172	0xbe07dc5e	-0.13267657
173	0xbc0b5d11	-0.0085060755
174	0xbe64a861	-0.22329856
175	0xbd8ba0d8	-0.06817788
176	0x3d8c1aee	0.06841074
177	0xbe19fce4	-0.15037876
178	0xbd9610c9	-0.0732742
179	0xbc0e0b15	-0.008669634
180	0xbea1b5ec	-0.31584108
181	0xbe91a135	-0.28443304
182	0xbdaa8d93	-0.083277844
183	0xbe261772	-0.16219881
184	0xbc99102d	-0.018684471
185	0x3c25aff6	0.010112753
186	0xbe387566	-0.18013534
187	0xbd6161d7	-0.055024948
188	0x3dbbf79e	0.091780886
189	0xbd2cc967	-0.04218426
190	0xbc32d856	-0.010915836
191	0x3d87a107	0.066225104
192	0xbdecad55	-0.11556498
193	0xbd64ecc4	-0.05588986
194	0xbd40d239	-0.047075484
195	0xbdd612d1	-0.10452808
196	0x3c76caca	0.015062997
197	0xbabd51f9	-0.0014443985
198	0x3da21a8d	0.079152204
199	0x3d83e424	0.06439999
200	0xbe6a3048	-0.2286998
201	0x3d85e88e	0.06538497
202	0x3df48447	0.119392924
203	0x3c54fafb	0.0129992915
204	0xbc6b5992	-0.014364617
205	0x3d96db14	0.073660046
206	0x3df6a0e6	0.12042408
207	0x3d1299ea	0.035791315
208	0xbce2275b	-0.027606657
209	0xbdca7ad5	-0.098867096
210	0x3dd1fa34	0.102528006
211	0xbd2413ee	-0.04005807
212	0xbe6cb6bd	-0.23116584
213	0x3dc15435	0.09439889
214	0xbc9e15cc	-0.019297503
215	0xbea9877f	-0.33111188
216	0x3dcb26c8	0.09919506
217	0xbdc76a7d	-0.09737108
218	0xbe3ab466	-0.18232879
219	0xbd24912a	-0.0401775
220	0xbdecebe7	-0.11568432
221	0xbec178b2	-0.37787396
222	0x3ddf6412	0.10907759
223	0xbdb31436	-0.08744089
224	0xbdedb392	-0.11606516
225	0xbd16369f	-0.036673184
226	0xbd494683	-0.04913951
227	0x3ba86382	0.0051388154
228	0xbe1fff83	-0.15624814
229	0xbdb56394	-0.08856884
230	0xbca5c469	-0.020235257
231	0xbe2fb822	-0.17160085
232	0xbd75f02c	-0.0600435
233	0x3d6c1825	0.057640214
234	0x3d8a4c95	0.06752888
235	0x3dc7576f	0.097334735
236	0x3da0b304	0.078466445
237	0xbcde060a	-0.027102489
238	0x3da24ef0	0.079252124
239	0x3e354e68	0.17705691
240	0xbc8b91fa	-0.01703738
241	0xbdb2289a	-0.086991504
242	0x3c22f3d5	0.009945829
243	0x3d957f9e	0.07299732
244	0xbd9719eb	-0.0737799
245	0xbe1631e8	-0.14667475
246	0xbcd9b627	-0.026576115
247	0xbdb3bfec	-0.087768406
248	0xbe2f14b8	-0.17097747
249	0x3cf17b6f	0.029477803
250	0xbe268f6e	-0.16265652
251	0xbe660d65	-0.22466047
252	0x3daa81a7	0.083255105
253	0xba396f76	-0.0007073799
254	0xbdfc0d4b	-0.12307223
255	0x3cfa9774	0.030589797

encoder.3.bias f4 [16]
0	0x3df4d223	0.11954143
1	0x3df3c0b3	0.11901989
2	0x3dd20c92	0.10256304
3	0x3e84d84c	0.2594627
4	0xbe25ae67	-0.1617981
5	0xbdf69b4e	-0.12041341
6	0xbe11f274	-0.14252645
7	0x3e74c8b9	0.23904695
8	0x3e365ada	0.17808095
9	0xbdfd719e	-0.123751864
10	0x3bebf398	0.0072006695
11	0x3df3c91d	0.11903594
12	0x3d9d224d	0.07672558
13	0xbdab2312	-0.083562985
14	0x3cc3fdbc	0.0239247
15	0xbc1ec9a3	-0.009691629

encoder.6.weight f4 [32, 16, 3, 3]
0	0xbdc47667	-0.09592896
1	0x3cf223d9	0.02955811
2	0xbdd1da37	-0.10246699
3	0x3db97d15	0.09057061
4	0xbdc20ab5	-0.094746985
5	0xbc91a888	-0.017780557
6	0xbda993be	-0.08280133
7	0x3dba61b7	0.09100669
8	0x3e1af8a1	0.15133907
9	0x3d40a872	0.047035642
10	0xbdbf4f7e	-0.09341334
11	0xbe28c001	-0.16479494
12	0xbd8ec282	-0.06970693
13	0xbd9b99c2	-0.07597686
14	0x3dcfa2b8	0.10138458
15	0x3cab1643	0.020884639
16	0x3d8dbe9a	0.0692112
17	0xbbc2ded1	-0.005946972
18	0xbc37b237	-0.011211923
19	0xbcfae907	-0.030628694
20	0xbe0a887a	-0.13528624
21	0xbe07e4ab	-0.13270824
22	0x3d5be813	0.05368812
23	0x3caaa543	0.020830756
24	0xbdb9d86b	-0.090744816
25	0xb8a4b83a	-7.854444e-05
26	0x3e5a30cd	0.21307679
27	0xbd0b344f	-0.033985432
28	0xbde33a3e	-0.11095093
29	0x3d38820d	0.0450459
30	0xbd191488	-0.037373096
31	0x3e93b594	0.2884947
32	0x3dc0a5e6	0.094066426
33	0x3de66cf2	0.112512484
34	0x3e5bd994	0.21469718
35	0xbe44fcad	-0.19237013
36	0x3c78c159	0.015182816
37	0xbe6781b6	-0.22608075
38	0xbd94dd97	-0.072688274
39	0xbdcf6ec6	-0.1012855
40	0x3e30ed0f	0.1727793
41	0x3e812b32	0.25228268
42	0x3db3451c	0.08753416
43	0x3df6d730	0.120527625
44	0xbe146e19	-0.14495124
45	0xbd463bf0	-0.048397005
46	0xbd97f163	-0.07419088
47	0xbe35f79a	-0.17770234
48	0x3cbe1bc1	0.023206593
49	0xbcdbca7a	-0.026829947
50	0x3df1fcf6	0.118158266
51	0xbdc3d6a3	-0.09562423
52	0x3d3f47fb	0.046699505
53	0x3d56fdc3	0.0524881
54	0xbcabcab9	-0.02097069
55	0xbe2d3300	-0.16913986
56	0xbe023f7f	-0.12719534
57	0xbda0659e	-0.07831882
58	0x3d34dd75	0.04415651
59	0x3dda553e	0.1066079
60	0x3c72ec98	0.014826916
61	0x3d3c4611	0.045965258
62	0xbda697bf	-0.08134412
63	0xbdd78f0d	-0.10525332
64	0xbd46f9a1	-0.04857791
65	0xbe03e690	-0.12880921
66	0x3b832fcc	0.0040035006
67	0xbca40fd6	-0.020027082
68	0x3df954a0	0.12174344
69	0xbd9e8fd0	-0.07742274
70	0x3e6f7fb6	0.23388562
71	0x3d4efd3b	0.05053447
72	0xbd8ae957	-0.06782787
73	0xbceefd53	-0.029173529
74	0x3cfd4ab7	0.030919416
75	0x3d36de32	0.044645496
76	0xbd862969	-0.06550867
77	0xbc80d5de	-0.01572698
78	0x3bbf3ee5	0.005836355
79	0x3d582822	0.05277265
80	0x3e164ef3	0.14678554
81	0x3cc2b90c	0.023769878
82	0xbd1afd52	-0.03783924
83	0xbe270019	-0.16308631
84	0x3d1e9ad1	0.038721863
85	0xbc8bd32d	-0.01706847
86	0x3da64db5	0.0812029
87	0x3c08f600	0.008359432
88	0x3e21bc85	0.1579457
89	0x3dc7bf26	0.097532555
90	0xbe1bfc3d	-0.1523294
91	0x3e10ceca	0.14141384
92	0x3d2523dd	0.040317405
93	0xbb2ce522	-0.002638169
94	0xbabd9715	-0.0014464582
95	0xbddbb66a	-0.10728152
96	0xbc533f97	-0.012893579
97	0x3ca4f685	0.02013708
98	0x3e523ef4	0.20531827
99	0x3d9ed49b	0.07755395
100	0xbe18793e	-0.1489
101	0xbcffb95a	-0.031216312
102	0xbe0bec4c	-0.13664359
103	0x3de74524	0.112924844
104	0x3e1258b8	0.14291656
105	0xbd5f150c	-0.05446343
106	0xbd16cfae	-0.036819153
107	0x3cab2456	0.02089135
108	0x3aaa212f	0.001297986
109	0xbc3e5254	-0.011616308
110	0xbdb2ed79	-0.087367006
111	0x3d03df97	0.032195654
112	0x3bcdb408	0.006277565
113	0x3e1470dd	0.14496179
114	0x3d17b934	0.037041858
115	0x3e6d295b	0.23160307
116	0x3e3dd749	0.18539156
117	0x3ba5953a	0.0050531896
118	0x3e7bc3fb	0.2458648
119	0x3e8c3ed4	0.27391684
120	0x3c2458e1	0.010030956
121	0xbb19eea3	-0.0023488186
122	0x3ccbae50	0.024863392
123	0xbc28d7ad	-0.010305327
124	0xbe06e4ae	-0.13173172
125	0x3dbee889	0.09321696
126	0xbd49ae9d	-0.04923879
127	0x3e21bf98	0.15795743
128	0x3ea67e29	0.32518128
129	0xbd29cd7d	-0.041455735
130	0x3e1e7446	0.15474042
131	0x3d1d0b41	0.03834081
132	0x3dcf522b	0.10123094
133	0xbd8c1055	-0.068390526
134	0xbc83e140	-0.016098619
135	0xbdea20b6	-0.1143202
136	0xbcc2d690	-0.023783952
137	0x3dcbc31e	0.09949325
138	0x3d5dc6ab	0.054144543
139	0x3d8400e5	0.06445483
140	0xbd6f8a65	-0.058481593
141	0x3d57ed22	0.05271638
142	0x3e1f464b	0.15554158
143	0x3e67afcf	0.2262566
144	0x3d413cfc	0.0471773
145	0x3ca53e19	0.020171212
146	0x3b9801b5	0.0046388754
147	0xbd32e277	-0.043673005
148	0x3d5d1c53	0.05398209
149	0xbc7fa294	-0.0156027265
150	0xbc664a05	-0.014055734
151	0x3e2e5d4e	0.1702778
152	0xbdfb7e5e	-0.12279962
153	0xbd17656a	-0.03696195
154	0xbd82c7c9	-0.06385762
155	0xbdb23125	-0.0870078
156	0xbcfa6385	-0.030565033
157	0x3e873da0	0.26414204
158	0x3b33d287	0.0027438716
159	0x3c7e912a	0.0155375395
160	0x3d9db76e	0.07701002
161	0xbd2b659f	-0.04184496
162	0x3b88aa95	0.0041707256
163	0x3c1aac02	0.009440424
164	0xbdb16916	-0.08662622
165	0xbb4079aa	-0.0029369392
166	0x3e38b67c	0.18038362
167	0x3da11249	0.07864816
168	0xbe155f71	-0.1458719
169	0x3e9164ac	0.2839712
170	0x3c775559	0.015096032
171	0xbbe8155d	-0.007082625
172	0xbd18d265	-0.037310023
173	0x3cb0869c	0.021548562
174	0x3e870bcd	0.2637619
175	0x3d7e1478	0.06203124
176	0xbe1c7af4	-0.15281278
177	0x3e038d74	0.12846929
178	0xbd654779	-0.055976365
179	0xbe36be0e	-0.17845938
180	0xbd74372c	-0.05962293
181	0xbb80deef	-0.0039328258
182	0xbdbe47c4	-0.09291032
183	0x3e42a1cb	0.19007032
184	0x3e4432e6	0.19160041
185	0xbe4b1bb0	-0.1983478
186	0x3e72090b	0.23636262
187	0x3d1e5298	0.038652986
188	0x3da93380	0.08261776
189	0xbda1abd2	-0.078941
190	0x3d62d1c7	0.05537584
191	0xbc497dda	-0.012298072
192	0x3df80955	0.12111155
193	0x3cf2984a	0.029613633
194	0xbe2e6515	-0.17030747
195	0x3ddf9721	0.109174974
196	0x3df85ed4	0.12127462
197	0x3df06f33	0.117399596
198	0xbd8ef94d	-0.06981144
199	0xbd5fbc84	-0.054623142
200	0xbd5473e8	-0.05186835
201	0x3d7dd4fc	0.061970696
202	0x3dff55c6	0.12467532
203	0xbdfb8254	-0.122807175
204	0x3d809707	0.06278806
205	0x3d57c5f9	0.052679036
206	0xbd1a7c9f	-0.037716504
207	0xbd7cf120	-0.061753392
208	0x3b0ae7ad	0.0021195218
209	0xbbc0eb33	-0.005887413
210	0x3db35ac3	0.08757546
211	0x3db37932	0.087633505
212	0xbe05403f	-0.13012789
213	0x3e31b57e	0.1735439
214	0x3e2f9ea1	0.17150356
215	0xbcbfd501	-0.023416998
216	0x3e0796ac	0.1324107
217	0x3ce4b642	0.027918939
218	0xbd9db379	-0.07700247
219	0xbc24c2c7	-0.010056204
220	0x3d3949d7	0.045236435
221	0xbd13277e	-0.035926335
222	0xbca2d302	-0.019876007
223	0x3dbea549	0.093088694
224	0xbdc2187c	-0.09477326
225	0x3b3e53ca	0.0029041641
226	0x3d74d163	0.05977
227	0xbcc4ea63	-0.024037546
228	0x3cf5d139	0.030006992
229	0x3d8c858e	0.06861411
230	0xbdab093e	-0.08351372
231	0x3d65f62c	0.05614297
232	0x3e3b33e2	0.1828151
233	0xbd2b2278	-0.04178092
234	0x3d2fa46f	0.042881425
235	0x3d136b59	0.035991047
236	0x3dbeb8b1	0.09312571
237	0xbdccc1c5	-0.09997896
238	0xbe4e4f92	-0.20147541
239	0xbcba1e02	-0.022719387
240	0x3e058b4d	0.1304142
241	0x3dec6f9b	0.115447246
242	0x3d04bd37	0.03240701
243	0xbd8a93fa	-0.067665055
244	0xbdb26ea5	-0.0871251
245	0xbbca52a6	-0.0061744032
246	0x3e24f69d	0.161097
247	0x3e965f74	0.293697
248	0xbd1051b5	-0.035234172
249	0xbd718e11	-0.058973376
250	0x3cf68756	0.03009383
251	0x3e763fd4	0.24047786
252	0x3d49dbac	0.04928176
253	0x3da22fec	0.079192966
254	0x3bc5462c	0.006020328
255	0xbcef0bd3	-0.029180443

encoder.6.bias f4 [32]
0	0xbbeb03fe	-0.0071721068
1	0x3de7a0fc	0.11310002
2	0xbe36fbc6	-0.17869481
3	0xbdfdd70b	-0.12394532
4	0x3bc427f4	0.005986208
5	0x3e1c28ac	0.1524989
6	0x3db0cf65	0.08633307
7	0xbcb327e3	-0.021869605
8	0xbd8fea83	-0.070271514
9	0xbbc7fd4b	-0.006103193
10	0xbcc4b30b	-0.024011156
11	0x3e052fe8	0.13006556
12	0x3deea788	0.11653048
13	0x3c5ad79d	0.01335707
14	0x3e676d29	0.22600235
15	0x3e28ac29	0.16471924
16	0x3e95f59f	0.29288957
17	0xbd571904	-0.05251409
18	0xbd8815bf	-0.06644773
19	0x3e4e9dee	0.20177433
20	0x3cd0df95	0.025497237
21	0x3e299611	0.16561152
22	0xbd030e15	-0.03199585
23	0x3dc6bd01	0.097040184
24	0x3ddec264	0.10876921
25	0x3e15e414	0.14637786
26	0x3e0e025d	0.13868089
27	0xbd9141bf	-0.07092618
28	0x3c3f3700	0.011670828
29	0xbe009613	-0.12557249
30	0x3e04da99	0.12974013
31	0xbd8c15cd	-0.06840096

bottle_neck.0.conv_block.1.weight f4 [32, 32, 3, 3]
0	0xbe02d996	-0.12778315
1	0xbda1ee03	-0.07906725
2	0xbe21ef40	-0.15813923
3	0xbd79467a	-0.060858227
4	0xbd5dc13b	-0.054139357
5	0x3c0ab113	0.008465069
6	0xbe700637	-0.23439871
7	0xbe0f253f	-0.13979052
8	0xbc874a94	-0.016515054
9	0xbd010250	-0.031496346
10	0x3db7a2f0	0.08966625
11	0xbe3a3c5d	-0.1818709
12	0xbd053627	-0.032522347
13	0xbdf02a46	-0.11726813
14	0x3c93ee4f	0.01805797
15	0x3ce89005	0.028388986
16	0x3d9669fa	0.07344432
17	0xbe0b565e	-0.13607165
18	0x3e1f3683	0.15548138
19	0x3d5dc53d	0.05414318
20	0x3caf6569	0.02141066
21	0x3d53051a	0.051518537
22	0x3e6263fe	0.22108456
23	0x3d8c430d	0.068487264
24	0x3e450101	0.19238664
25	0x3cd5e009	0.026107805
26	0x3d9660e0	0.07342696
27	0x3c818f5d	0.015815431
28	0x3e043034	0.12909013
29	0x3e165656	0.14681372
30	0x3dab569e	0.0836613
31	0x3e0c553c	0.1370439
32	0x3e0558ac	0.13022107
33	0x3e67d2c3	0.22638993
34	0x3e0a4857	0.13504158
35	0x3ceb4902	0.028721336
36	0xbe053909	-0.13010038
37	0x3e76dc87	0.24107562
38	0x3e81e457	0.25369522
39	0x3dc49bfe	0.09600066
40	0x3e4fd022	0.2029424
41	0x3dbd2e0d	0.09237299
42	0x3d68b601	0.056814197
43	0x3e0daa49	0.1383449
44	0xbe1c8702	-0.15285876
45	0x3d078973	0.033090066
46	0x3d3d724a	0.046251573
47	0xbdd29d2e	-0.10283886
48	0xb8184e71	-3.631268e-05
49	0x3d584ad4	0.052805737
50	0xbdfec97b	-0.12440773
51	0x3d802b90	0.06258309
52	0x3dc1d6fe	0.09464835
53	0x3c048f0c	0.008090746
54	0x3d4befe9	0.049789343
55	0xbc14effc	-0.00909042
56	0x3d4cfda0	0.050046563
57	0xbbab2f0d	-0.0052241147
58	0x3d075a9a	0.03304539
59	0x3e4a6f26	0.19768962
60	0x3e124e4e	0.14287683
61	0xbce1f96d	-0.027584756
62	0xbd94ab76	-0.07259266
63	0x3de51d7e	0.11187266
64	0x3d98c6a5	0.074597634
65	0xbd3c0cf0	-0.045910776
66	0x3e34cad5	0.176555
67	0xbd8e5fd6	-0.06951873
68	0x3d983794	0.07432476
69	0x3dc1b1c1	0.09457732
70	0xbe09bc23	-0.13450675
71	0xbddbcc92	-0.10732378
72	0x3e58c875	0.21170218
73	0x3df2ede5	0.11861781
74	0x3e1d9d1c	0.15391964
75	0x3e6dd8e4	0.23227268
76	0xbd112437	-0.035434928
77	0x3dc0e551	0.09418739
78	0x3d89568e	0.06705962
79	0xbd0e433d	-0.034732092
80	0xbd5b079b	-0.05347405
81	0x3ce9bf23	0.028533524
82	0x3d1970b1	0.037460987
83	0xbc8bd010	-0.017066985
84	0x3cab3d89	0.020903366
85	0x3e33824a	0.1753017
86	0x3c9e5582	0.019327883
87	0x3c420cc6	0.011843866
88	0x3d2de93c	0.042458758
89	0xbdfa8170	-0.122317195
90	0xbb9643d4	-0.0045857225
91	0xbd58e46f	-0.052952226
92	0xbe2eb4a7	-0.17061101
93	0x3d9f1977	0.07768529
94	0xbd0e8c20	-0.034801602
95	0xbc1bcb66	-0.009508943
96	0xbc4f7119	-0.012661242
97	0xbd525665	-0.051351923
98	0xbd7202e7	-0.0590848
99	0x3da6335f	0.08115267
100	0xbe3ea418	-0.18617284
101	0x3e213784	0.15743834
102	0xbdd3653a	-0.10322042
103	0xbc5ebac7	-0.013594336
104	0x3defbca6	0.11705904
105	0xbdc90f15	-0.0981733
106	0xbcddc22f	-0.027070133
107	0x3cb858c3	0.022503262
108	0x3d7eb365	0.062182803
109	0xbcb6cc10	-0.022314101
110	0xbe089ece	-0.13341829
111	0x3e20e3e3	0.15711932
112	0xbd850085	-0.0649424
113	0x3de8e255	0.113712944
114	0xbc8e7141	-0.017387988
115	0xbe47d37c	-0.19514269
116	0xbe04af3b	-0.1295747
117	0x3e158da7	0.14604817
118	0x3c5a8bed	0.013339025
119	0xbe3e642d	-0.18592902
120	0xbda3b4ee	-0.07993494
121	0x3d17a494	0.03702219
122	0xbdcc2ad9	-0.0996911
123	0x3b8098d5	0.003924469
124	0xbd835546	-0.06412749
125	0x3da9be27	0.08288222
126	0xbd037f1f	-0.032103654
127	0x3d667f33	0.05627365
128	0x3e4c9435	0.19978411
129	0xbe2e36e2	-0.17013124
130	0xbd353381	-0.04423857
131	0xbd8c295e	-0.06843828
132	0xbd972daf	-0.0738176
133	0x3de57e34	0.11205712
134	0xbd182f98	-0.037154764
135	0x3bc02bc1	0.005864591
136	0xbba95ee6	-0.0051687835
137	0xbe28b5ed	-0.16475649
138	0x3cab2f85	0.020896683
139	0xbe6742cc	-0.22584075
140	0x3d47d1c4	0.048784032
141	0x3dab5d86	0.083674476
142	0xbd975c9b	-0.0739071
143	0x3db135ef	0.08652865
144	0x3d7dedbf	0.06199431
145	0x3d58b8fc	0.05291079
146	0x3d8338a7	0.0640729
147	0x3d916014	0.070984036
148	0x3df5ec66	0.1200798
149	0x3de1b28e	0.11020385
150	0x3e51a723	0.20473914
151	0x3d8f5bff	0.06999969
152	0x3e1c6eb9	0.15276612
153	0xbdb77443	-0.08957722
154	0xbd79e844	-0.06101252
155	0xbebf7ae5	-0.3739845
156	0x3afefe6c	0.0019454486
157	0xbe2ab3b5	-0.16670115
158	0x3d2e10f7	0.042496648
159	0xbda40f48	-0.08010727
160	0xbdb6410e	-0.08899127
161	0xbc51ba18	-0.012800716
162	0xbc63a063	-0.01389322
163	0xbc753d21	-0.014968188
164	0xbe25a98a	-0.16177955
165	0x3d8941c8	0.06702
166	0x3c882050	0.01661697
167	0xbd39e54b	-0.045384686
168	0x3d834e27	0.06411391
169	0xbd8428a5	-0.06453065
170	0x3d965afa	0.07341571
171	0x3c7f7eb3	0.015594172
172	0x3be32d48	0.006932888
173	0xbe0f1763	-0.13973765
174	0x3e1dd8b3	0.15414695
175	0xbe57cbee	-0.21073887
176	0x3da87732	0.0822586
177	0xbb2f6662	-0.0026763906
178	0x3d75ff80	0.060058117
179	0x3d4b422c	0.049623653
180	0x3e2ee9af	0.1708133
181	0x3cbd3be7	0.023099853
182	0xbdb71e6c	-0.089413494
183	0x3e0f4111	0.13989665
184	0x3e1b243f	0.15150546
185	0x3cd316bf	0.025767682
186	0x3db80cb7	0.089868
187	0xbdeb48c4	-0.11488488
188	0xbd71b4b9	-0.05901024
189	0xbdf18d45	-0.11794523
190	0xbdbec161	-0.09314228
191	0x3e585835	0.21127398
192	0xbda945c7	-0.08265262
193	0x3e6413cb	0.22273175
194	0xbe0b4de2	-0.13603929
195	0xbe2596bf	-0.16170786
196	0x3bd6e6bc	0.0065582674
197	0xbe445785	-0.19174011
198	0xbd1074c6	-0.035267614
199	0xbcd6d1f2	-0.026223157
200	0x3e37bbf0	0.17942786
201	0xbe500be0	-0.2031703
202	0xbde3bc79	-0.11119933
203	0x3e191fdf	0.14953564
204	0x3d826164	0.06366232
205	0x3de6f03b	0.11276289
206	0x3c725d08	0.014792688
207	0x3deadad7	0.11467522
208	0x3ddb58a3	0.107102655
209	0x3e9591cc	0.29212797
210	0x3ccbae6a	0.02486344
211	0x3e35bff2	0.17749003
212	0x3da82b58	0.08211392
213	0x3c0e77ff	0.0086956015
214	0x3e0b4f09	0.13604368
215	0xbd9ac8ea	-0.075578526
216	0x3bbadfd2	0.005702951
217	0x3d79cc93	0.060986113
218	0xbdabe596	-0.083933994
219	0xbd9de448	-0.07709557
220	0xbd8047d4	-0.062637
221	0x3a1064cd	0.00055081845
222	0x3d3d824f	0.04626685
223	0x3ceac5a5	0.028658697
224	0x3dab0127	0.08349829
225	0x3dcb0bae	0.09914337
226	0x3abde11e	0.0014486646
227	0x3e5b8081	0.21435739
228	0x3d9f80c3	0.07788231
229	0x3de8b70e	0.1136304
230	0x3cd95d88	0.026533857
231	0x3b8a5daf	0.0042225937
232	0x3e2a90dd	0.16656823
233	0xbcd0e7c9	-0.025501149
234	0x3ddad071	0.10684288
235	0xbe5862f5	-0.21131499
236	0x3e4ac296	0.19800791
237	0x3c02b247	0.007977075
238	0x3e22a84b	0.15884511
239	0x3b9bb7c8	0.004752133
240	0x3e148f80	0.14507866
241	0xbd2765ad	-0.04086845
242	0x3e2d7cdf	0.16942166
243	0xbe4fe33f	-0.20301531
244	0x3db56bd7	0.088584594
245	0x3e4dd06a	0.20099035
246	0xbe267613	-0.16255979
247	0xbd599327	-0.05311885
248	0x3d95ca07	0.07313924
249	0x3d4e7333	0.05040283
250	0x3d7477ef	0.05968469
251	0xbe5fdc41	-0.21861364
252	0x3a43db6e	0.0007471357
253	0x3dd109bd	0.102069356
254	0xbd2d3dd1	-0.04229528
255	0x3c674162	0.01411471

bottle_neck.0.conv_block.2.weight f4 [32]
0	0x3f53d184	0.8274157
1	0x3f709ff5	0.93994075
2	0x3f83e066	1.0302856
3	0x3f802765	1.0012022
4	0x3f537679	0.8260265
5	0x3f81cdcd	1.014093
6	0x3f8832ed	1.0640541
7	0x3f879984	1.0593724
8	0x3f5bdc34	0.8588288
9	0x3f7be743	0.9839975
10	0x3f9613c2	1.172478
11	0x3f537f23	0.8261587
12	0x3f653a04	0.8954165
13	0x3f79b104	0.9753573
14	0x3f81a90c	1.0129714
15	0x3f61f9e1	0.8827191
16	0x3f62f05b	0.88648003
17	0x3f7724f6	0.9654077
18	0x3f7c32b0	0.98514843
19	0x3f5cfa78	0.86319685
20	0x3f6a944d	0.9163254
21	0x3f54b23f	0.8308448
22	0x3f85833a	1.0430672
23	0x3f872815	1.0559107
24	0x3f8e49b0	1.1116238
25	0x3f9977b6	1.1989658
26	0x3f84ac74	1.0365129
27	0x3f88cc90	1.0687428
28	0x3f825e8b	1.0185102
29	0x3f71aa4a	0.94400465
30	0x3f8182de	1.0118062
31	0x3f61fe5f	0.88278764

bottle_neck.0.conv_block.2.bias f4 [32]
0	0xbe354c80	-0.17704964
1	0xbeb104bb	-0.34573922
2	0xbe697187	-0.22797213
3	0xbe7168c9	-0.23575129
4	0xbec0e2fd	-0.37673178
5	0xbe726ab1	-0.23673512
6	0xbe719e97	-0.23595653
7	0xbc21f4ed	-0.009885055
8	0xbeb1012b	-0.34571204
9	0xbe8e8486	-0.27835482
10	0xbe5ea08e	-0.21740934
11	0xbe992aba	-0.2991541
12	0xbe2813bd	-0.1641378
13	0xbe5d25fe	-0.21596524
14	0xbe70e424	-0.23524529
15	0xbe527f7a	-0.20556441
16	0xbe5beb08	-0.21476376
17	0xbec0b8f3	-0.37641105
18	0xbe33ae62	-0.1754699
19	0xbe3826f3	-0.17983608
20	0xbf0271fa	-0.50955164
21	0xbeb9dfa2	-0.3630343
22	0x3c3e8d3a	0.011630351
23	0xbe7399bb	-0.23789112
24	0xbe9a4239	-0.3012865
25	0xbe9748cb	-0.29547724
26	0xbe2c646f	-0.16835187
27	0xbe6642f5	-0.2248648
28	0xbe84a5e1	-0.25907806
29	0xbe112669	-0.14174809
30	0xbec2c216	-0.380387
31	0xbe51a43c	-0.20472807

bottle_neck.0.conv_block.2.running_mean f4 [32]
0	0x3f29d191	0.663354
1	0xbfe516eb	-1.7897619
2	0x3f329763	0.6976225
3	0x3efc817a	0.49317533
4	0x3cf9e814	0.030506171
5	0x3e3dfe60	0.18554068
6	0xbfb82eab	-1.4389242
7	0x3e27ddf0	0.16393256
8	0x3fa81f84	1.3134618
9	0x3f082e10	0.53195286
10	0xc06a9cbb	-3.665816
11	0x3ea9a637	0.33134624
12	0x3fda1c61	1.703991
13	0xbfc87e1a	-1.5663483
14	0xbfb4558d	-1.4088608
15	0xbf8f3e07	-1.1190804
16	0xbf1fb07c	-0.6237867
17	0x3c95c585	0.018282661
18	0x3e96d08e	0.2945599
19	0xbf0e7788	-0.5565114
20	0xbfd23aaf	-1.6424159
21	0x3f8c66d3	1.096888
22	0xc00dfb2a	-2.2184548
23	0xbf3c1681	-0.7347184
24	0xbfc1b6c6	-1.5133903
25	0xbf326f4b	-0.6970107
26	0xbfa91604	-1.3209844
27	0x3f4246cf	0.75889295
28	0xbf811a11	-1.008608
29	0xbfa923f0	-1.3214092
30	0xbe5a9bbf	-0.21348475
31	0xbf5b4b69	-0.8566194

bottle_neck.0.conv_block.2.running_var f4 [32]
0	0x4104ad63	8.292331
1	0x40e2209c	7.0664806
2	0x40e5dd58	7.1832695
3	0x41142cbc	9.2609215
4	0x40f9b772	7.803643
5	0x40c3b568	6.1158943
6	0x40b7ff44	5.7499104
7	0x40d18a9d	6.5481706
8	0x4111ac13	9.10451
9	0x40c1c037	6.0547137
10	0x412684e4	10.407444
11	0x40b8decc	5.777197
12	0x40a52c8d	5.1616883
13	0x4134edf1	11.308091
14	0x40ee7676	7.4519606
15	0x40d1ac85	6.5523095
16	0x40ebb8de	7.366317
17	0x40c6ba74	6.2102604
18	0x40d0d5f0	6.5261154
19	0x40a4961d	5.1433244
20	0x40e13182	7.0372934
21	0x41261b33	10.38164
22	0x410088c9	8.033395
23	0x40d71e70	6.7224655
24	0x4108cc9b	8.5499525
25	0x40f0a05e	7.519576
26	0x40d3dbe9	6.6205945
27	0x40e22a4b	7.0676627
28	0x40955701	4.6668706
29	0x40ac3e96	5.38264
30	0x40ea7153	7.3263335
31	0x40bc8c72	5.892144

bottle_neck.0.conv_block.5.weight f4 [32, 32, 3, 3]
0	0x3e0ee9cc	0.13956374
1	0xbdc7e590	-0.097605824
2	0x3d0b6407	0.03403094
3	0xbd66d240	-0.056352854
4	0xbca1251a	-0.019671012
5	0xbc859e48	-0.016310826
6	0x3d2007ed	0.03907006
7	0xbc84a1b0	-0.01619038
8	0x3cd2be64	0.025725551
9	0x3e2030d9	0.15643634
10	0xbe0bfecf	-0.1367142
11	0xbd87fe66	-0.066403195
12	0xbe21f17d	-0.15814777
13	0x3e39fdf3	0.1816328
14	0xbcf721cd	-0.030167485
15	0x3cd9e657	0.026599092
16	0x3de8e2ab	0.113713585
17	0xbdc5171c	-0.096235484
18	0x3d1cc063	0.03826941
19	0xbe0bc86f	-0.13650678
20	0xbe70ef98	-0.23528898
21	0xbc28dbc8	-0.010306306
22	0xbe3035f0	-0.17208076
23	0x3d506798	0.050880045
24	0x3dc918f4	0.098192126
25	0xbd51d5c6	-0.05122926
26	0x3d0f3ba6	0.034968995
27	0x3e0175fc	0.12642664
28	0x3e4fbe81	0.20287515
29	0xbe186994	-0.14884025
30	0xbc8791dd	-0.016549045
31	0xbda4ddf2	-0.08050145
32	0xbd61611d	-0.055024255
33	0x3dbecbb6	0.093161985
34	0x3d8b82a7	0.06812029
35	0x3dc316b3	0.09525814
36	0xbcff55d3	-0.031168854
37	0xbda74459	-0.08167333
38	0x3e35bf71	0.1774881
39	0xbe8e468b	-0.27788195
40	0x3b971f95	0.004611919
41	0xbd9254ce	-0.071450815
42	0x3d0b989e	0.034081094
43	0x3e063d46	0.13109311
44	0x3e5365d7	0.20644318
45	0xbc461927	-0.012090958
46	0x3ce9d569	0.028544145
47	0xbe6cf9a9	-0.23142113
48	0xbe3fc92a	-0.18729082
49	0xbe75e70e	-0.24013922
50	0x3dd6ef9b	0.1049492
51	0x3df784b6	0.120858595
52	0x3e2e3c6b	0.17015235
53	0x3dfc727b	0.12326523
54	0x3d4d0512	0.050053664
55	0x3d6a842d	0.05725496
56	0xbccdcba7	-0.025121523
57	0xbcbcfb52	-0.023069058
58	0x3dad366a	0.08457644
59	0xbd157f38	-0.03649828
60	0xbd2fe0ce	-0.042939
61	0xbde27cc9	-0.11058957
62	0xbcbaddea	-0.022810895
63	0x3a30be9c	0.000674227
64	0xbce79dd9	-0.02827351
65	0x3ca5a66e	0.020220961
66	0xbc8f59fa	-0.017498959
67	0x3e47be47	0.19506179
68	0xbd8be1f8	-0.068302095
69	0x3b8688da	0.0041056694
70	0xbc2fd590	-0.01073207
71	0x3d600fb7	0.054702487
72	0xbde04a05	-0.10951618
73	0xbcf4fa75	-0.029904583
74	0x3e62481b	0.22097819
75	0xbd80b3c8	-0.062842906
76	0x3e0f44da	0.13991109
77	0x3dbfb06d	0.093598224
78	0xbe2776df	-0.1635394
79	0x3d636a9a	0.055521585
80	0xbd8d0903	-0.068864845
81	0x3d1c6e56	0.038191162
82	0xbda30a58	-0.07960957
83	0xbe5105ec	-0.20412415
84	0xbdf5cf77	-0.120024614
85	0x3e06f42b	0.1317908
86	0xbe53f81f	-0.2070012
87	0x3df159a2	0.11784674
88	0x3df610ee	0.12014948
89	0x3ddae769	0.10688669
90	0x3cc8f124	0.024529047
91	0xbceb5838	-0.02872859
92	0xbd394352	-0.045230217
93	0x3e088ef2	0.1333578
94	0xbe33f56e	-0.17574093
95	0xbd2c6e15	-0.04209717
96	0x3dda091a	0.10646267
97	0x3d1498bb	0.036278468
98	0x3e3d037c	0.1845836
99	0x3d385f20	0.045012593
100	0x3cc7c54a	0.024386067
101	0xbc3903a6	-0.011292374
102	0x3e3b5078	0.18292415
103	0x3e06a5f9	0.13149251
104	0x3df7619d	0.12079165
105	0x3e141090	0.14459443
106	0x3ce62649	0.028094428
107	0x3dc34014	0.09533706
108	0xbdc28b53	-0.0949923
109	0xbdb43a1f	-0.08800148
110	0x3d65b0f6	0.056076966
111	0x3e1660c0	0.14685345
112	0x3d8e4cda	0.06948252
113	0xbd92b8ae	-0.07164131
114	0xbdbba1a6	-0.09161691
115	0xbd9e4ef0	-0.077299
116	0xbd822e81	-0.06356526
117	0xbdd57893	-0.10423388
118	0x3dc73062	0.09726025
119	0xbd581e7f	-0.05276346
120	0x3cf7b5cd	0.030238057
121	0xbdc64168	-0.09680444
122	0xbd4a1438	-0.04933569
123	0x3c5d778a	0.01351727
124	0x3dc36938	0.09541553
125	0xbd033d4e	-0.032040887
126	0xbd7fd4dc	-0.062458858
127	0x3dd27d70	0.102778316
128	0x3e0f8b14	0.14017898
129	0x3e20677a	0.15664473
130	0xbde408a1	-0.11134458
131	0xbdebaf7f	-0.115080826
132	0x3d83b5c4	0.064311534
133	0x3df52764	0.11970404
134	0x3c729b3a	0.014807517
135	0x3bbb1651	0.0057094474
136	0x3cc2b238	0.023766622
137	0x3df989d9	0.121844955
138	0x3dc8d155	0.09805552
139	0xbe1fab75	-0.1559275
140	0xbde3c988	-0.111224234
141	0xbda89f55	-0.08233515
142	0x3e3334de	0.17500636
143	0xbdae8fb2	-0.085235015
144	0x3cdc21f8	0.026871666
145	0xbdc34fca	-0.09536703
146	0x3dae54ae	0.08512245
147	0xbe1f6955	-0.15567525
148	0xbdc899d3	-0.09794965
149	0xbe04bbef	-0.12962316
150	0xbe786adb	-0.24259512
151	0xbe14afc5	-0.14520176
152	0x3e10a4ce	0.14125368
153	0x3b70d842	0.0036749993
154	0xbc93adf5	-0.018027285
155	0xbdbe0c40	-0.0927968
156	0xbbe34447	-0.0069356295
157	0x3d194ef3	0.037428807
158	0xbbea0893	-0.0071421354
159	0x3d79d379	0.06099269
160	0x3c596db1	0.013270781
161	0xbe3851a3	-0.17999892
162	0x3e052247	0.13001357
163	0x3ddf6a0a	0.10908897
164	0x3e04dcc6	0.12974843
165	0x3d964153	0.07336678
166	0x3e1900cf	0.14941715
167	0x3e2b4ea2	0.16729215
168	0xbd3e1736	-0.046408854
169	0x3c3ec1f8	0.011642925
170	0xbcf0d154	-0.02939669
171	0x3d707a64	0.05871047
172	0x3d95a546	0.07306914
173	0xbdd2abc2	-0.102866665
174	0xbb272df4	-0.0025509568
175	0x3e20af56	0.15691885
176	0x3d98d901	0.07463265
177	0x3dac95ba	0.084269956
178	0xbdb542c2	-0.08850624
179	0x3e01fafd	0.126934
180	0xbdcf4a79	-0.101216264
181	0xbd34c17f	-0.044129845
182	0xbe1c4a0d	-0.15262623
183	0xbd534e10	-0.051588118
184	0xbdb56ea4	-0.08858994
185	0xbdd5e4df	-0.10444044
186	0x3cd217be	0.025646087
187	0xbbe13006	-0.00687218
188	0x3cdc762f	0.026911823
189	0xbd0a081d	-0.033699144
190	0xbe5ae96a	-0.21378103
191	0x3e539e00	0.20665741
192	0xbdebf6c8	-0.11521679
193	0xbe4490c3	-0.19195847
194	0xbe13e640	-0.14443302
195	0xbd90adf7	-0.07064431
196	0xbce2eae7	-0.0276999
197	0x3d832426	0.06403379
198	0x3d650fd7	0.05592331
199	0xbe33625d	-0.17517991
200	0x3d3e3526	0.046437405
201	0x3d842589	0.06452472
202	0x3e0639cf	0.1310799
203	0x3d5a4ae0	0.053294063
204	0x3e073ed4	0.13207561
205	0x3c01ca01	0.007921697
206	0x3e6b1f23	0.22961096
207	0xbc92d51a	-0.01792388
208	0x3d333c1b	0.043758493
209	0xbda56846	-0.08076529
210	0x3d12216d	0.03567641
211	0x3de09b24	0.10967091
212	0xbc2a3346	-0.010388201
213	0xbb9a6fa1	-0.0047130142
214	0x3dd10cdd	0.102075316
215	0xbda9a24f	-0.08282911
216	0xbddae53a	-0.10688253
217	0x3d8c792c	0.06859049
218	0x3d147a11	0.036249224
219	0x3d868a68	0.06569368
220	0x3ec8dad9	0.39229468
221	0x3dc988b3	0.098405264
222	0xbe2f19d1	-0.17099692
223	0x3e0ef53c	0.13960737
224	0xbbe1ebee	-0.00689458
225	0x3e20de2b	0.1570975
226	0xbe680391	-0.2265761
227	0xbe259fb5	-0.16174205
228	0x3e0107db	0.12600653
229	0xbe840c9c	-0.2579087
230	0x3e72f343	0.2372561
231	0x3da8a41d	0.08234427
232	0xbea91fe1	-0.33032134
233	0x3cefb9b0	0.029263347
234	0xbcd15d4f	-0.025557188
235	0x3e81fc68	0.25387883
236	0xbd988f88	-0.074492514
237	0x3db3c6de	0.08778165
238	0x3d79b147	0.06096008
239	0xbbfdea1d	-0.0077488557
240	0xbd8a0f41	-0.06741191
241	0x3e45b074	0.19305593
242	0xbe4a5aed	-0.19761248
243	0xbdfb13a7	-0.12259608
244	0x3ec163fe	0.377716
245	0x3d93985c	0.072067946
246	0x3dfa9330	0.12235105
247	0xbb869d8a	-0.0041081356
248	0xbe81314c	-0.25232923
249	0x3d143a55	0.036188442
250	0xbe19b870	-0.15011764
251	0x3d88d267	0.06680756
252	0xbe03484b	-0.12820546
253	0xbd9a6549	-0.0753885
254	0xbdfd9e55	-0.12383715
255	0xbb7a8a23	-0.0038229309

bottle_neck.0.conv_block.6.weight f4 [32]
0	0x3f5f71aa	0.8728281
1	0x3f5077c8	0.8143277
2	0x3f573961	0.8407193
3	0x3f65dce8	0.897902
4	0x3f67a3f4	0.9048455
5	0x3f708e14	0.93966794
6	0x3f802246	1.001046
7	0x3f4b85fd	0.79501325
8	0x3f3eb935	0.74501354
9	0x3f77a1b7	0.9673113
10	0x3f5a695a	0.85317004
11	0x3f8502fd	1.0391537
12	0x3f5b058d	0.85555345
13	0x3f73a50a	0.95173705
14	0x3f8b68dd	1.0891377
15	0x3f6c2e98	0.92258596
16	0x3f502410	0.81305027
17	0x3f648682	0.8926774
18	0x3f319f5c	0.6938379
19	0x3f663506	0.8992466
20	0x3f96c032	1.1777403
21	0x3f879e4a	1.0595181
22	0x3f545b9f	0.829523
23	0x3f3db0b9	0.7409778
24	0x3f3f3724	0.7469351
25	0x3f814144	1.0098042
26	0x3f74c806	0.9561771
27	0x3f87dcf9	1.061431
28	0x3f460543	0.7735178
29	0x3f8ee052	1.1162207
30	0x3f5aa94a	0.85414565
31	0x3f57d93d	0.84315854

bottle_neck.0.conv_block.6.bias f4 [32]
0	0xbd6a1f3b	-0.05715869
1	0xbd3d78e3	-0.046257865
2	0xbd3678bf	-0.044548746
3	0xbe589e12	-0.21154049
4	0x3def2ba3	0.11678245
5	0xbd98f7d5	-0.07469145
6	0xbd1acc4b	-0.037792485
7	0xbd312f29	-0.043257866
8	0xbdcb78e7	-0.0993517
9	0xbb22f83d	-0.00248672
10	0xbd9c74ba	-0.07639451
11	0xbd8143d8	-0.06311768
12	0x3d93c130	0.07214582
13	0xbe28ec59	-0.1649641
14	0xbcdaefee	-0.026725736
15	0xba99cf0e	-0.0011734681
16	0x3d94b7ea	0.07261641
17	0xbd7425f6	-0.059606515
18	0x3d808479	0.06275267
19	0xbda04bc5	-0.07826952
20	0xbd5383b0	-0.05163926
21	0x3df7b5c8	0.12095219
22	0x3cc54ff6	0.02408598
23	0x3d34cfc9	0.044143472
24	0xbdb71d18	-0.08941096
25	0xbda33415	-0.07968918
26	0x3d701eaf	0.058623012
27	0x3c5b3202	0.013378622
28	0xbc9fb613	-0.019496
29	0xbd9df5bc	-0.07712886
30	0x3ce51fb6	0.027969223
31	0xbe086d3e	-0.13322923

bottle_neck.0.conv_block.6.running_mean f4 [32]
0	0x3e8a2a1a	0.26985246
1	0x3ed86a40	0.42268562
2	0x3f601b20	0.8754139
3	0x3ef582f8	0.47951484
4	0x3f7ef2ac	0.9958904
5	0xbf31925c	-0.6936395
6	0x3f173743	0.590687
7	0xbf39a9cf	-0.7252473
8	0xbfb47107	-1.4096993
9	0xbe1610c7	-0.14654838
10	0x3f49e235	0.7886079
11	0x3e126991	0.14298083
12	0x3e3fc951	0.1872914
13	0xbf719a30	-0.94375896
14	0x3ed76560	0.4206953
15	0xbc21759c	-0.0098547
16	0xbea34821	-0.31890967
17	0x3f054344	0.52055764
18	0x3f83b0e5	1.0288359
19	0x3f6c9b9e	0.92424953
20	0x3f8582e8	1.0430574
21	0xbf2f5868	-0.6849427
22	0x3e151834	0.14560014
23	0x3e1bf4ca	0.15230098
24	0x3f6d28bc	0.9264028
25	0xbf8368c1	-1.0266343
26	0x3f918faf	1.1371974
27	0x3eb22f7f	0.34801862
28	0x3df860a8	0.12127811
29	0x3e31054f	0.17287181
30	0x3f10ebd4	0.56609845
31	0xbf998675	-1.1994158

bottle_neck.0.conv_block.6.running_var f4 [32]
0	0x4015d2bd	2.3409874
1	0x40682913	3.627507
2	0x404b66bd	3.1781456
3	0x408c97c2	4.393525
4	0x40059a2d	2.0875351
5	0x400fe769	2.2484992
6	0x40484466	3.1291747
7	0x403297a2	2.790505
8	0x404cb1e9	3.1983588
9	0x401454f8	2.317686
10	0x40a4b8cb	5.1475577
11	0x401b5254	2.4269
12	0x40505b69	3.2555792
13	0x40924cd3	4.571878
14	0x4011650c	2.2717924
15	0x4008534f	2.1300848
16	0x4049406c	3.144557
17	0x40314a27	2.770151
18	0x4029c3e7	2.652582
19	0x4039ca93	2.9029891
20	0x3fed9a60	1.8562737
21	0x3fc4acae	1.5365198
22	0x403e1bd5	2.9704487
23	0x405a570a	3.4115624
24	0x403b0e93	2.9227645
25	0x3fe98ab4	1.8245454
26	0x4020cbbb	2.5124347
27	0x3fc687f3	1.5510238
28	0x403d688c	2.959506
29	0x3fd354c1	1.651024
30	0x40279187	2.6182573
31	0x402bc39c	2.683814

bottle_neck.1.conv_block.1.weight f4 [32, 32, 3, 3]
0	0xbc879ad5	-0.016553322
1	0x3c2d39c1	0.010572852
2	0xbd8e9f81	-0.06964017
3	0x3e612531	0.21986844
4	0x3dda4694	0.10657993
5	0xbe13d218	-0.14435613
6	0x3e26fdf2	0.1630781
7	0xbe0840c5	-0.13305958
8	0xbd0b97c5	-0.034080286
9	0x3d83c38a	0.064337805
10	0xbc98ba06	-0.01864339
11	0x3ccdb2ae	0.025109615
12	0x3e06f673	0.1317995
13	0x3df0fe25	0.11767224
14	0xbd74d0a9	-0.059769306
15	0xbd803bee	-0.06261431
16	0xbd4c9072	-0.04994244
17	0xbdee3493	-0.116311215
18	0x3e82e475	0.25564924
19	0xba503830	-0.0007942943
20	0x3d985943	0.074389
21	0x3d6773fc	0.056507096
22	0x3db9b9d2	0.090686455
23	0x3e478fe4	0.19488484
24	0xbdab6b02	-0.083700195
25	0xbd934cb6	-0.07192366
26	0x3b85e7a4	0.0040864516
27	0x3cd9a6f4	0.026568867
28	0x3da16ffc	0.078826874
29	0xbd1b2df8	-0.037885636
30	0xbba37ee1	-0.0049894904
31	0xbd90f1d7	-0.07077377
32	0xbda4b676	-0.08042614
33	0xbe49b857	-0.19699226
34	0xbd72be0d	-0.059263278
35	0xbde577a1	-0.11204458
36	0x3e36867f	0.17824744
37	0xbd13e342	-0.0361054
38	0x3e18e70d	0.14931889
39	0xbd327423	-0.043567788
40	0x3d5e0da5	0.05421223
41	0x3e216c32	0.1576393
42	0x3e4287cb	0.18997113
43	0xbd1f9957	-0.038964596
44	0x3d73d782	0.059531696
45	0x3e3d27ff	0.18472289
46	0x3e6e98c5	0.23300464
47	0x3b7cee2f	0.0038594117
48	0x3dbf10a3	0.09329345
49	0x3db64750	0.089003205
50	0xbd4a6cca	-0.049420156
51	0xbe60a791	-0.21938922
52	0xbe38cfa7	-0.18047963
53	0xbe6cb21e	-0.23114821
54	0x3e166404	0.1468659
55	0x3e0070f2	0.12543085
56	0x3e14dccc	0.14537352
57	0xbde3fd38	-0.11132282
58	0xbc5ee78d	-0.013605011
59	0xbd4bd339	-0.049761984
60	0xbe574fe9	-0.21026577
61	0xbd1590bf	-0.036514994
62	0xbd7c6fd5	-0.06163009
63	0xbd8f7235	-0.07004205
64	0x3d54114e	0.051774316
65	0x3d0095c1	0.031392816
66	0xbce152ea	-0.027505357
67	0x3e3d2df0	0.18474555
68	0xbc528f05	-0.012851481
69	0x3d954d10	0.07290089
70	0x3e07bd2c	0.13255757
71	0xbde3e8d2	-0.11128391
72	0xbde02140	-0.10943842
73	0xbce234ec	-0.027613126
74	0x3d466032	0.048431583
75	0xbd326db9	-0.04356167
76	0x3ba658c4	0.0050764997
77	0x3ddf86a2	0.10914351
78	0xbda2ef89	-0.07955844
79	0x3e1d6772	0.15371493
80	0xbde4d2c4	-0.11173013
81	0x3d3c8d0e	0.046032958
82	0xbdee29c6	-0.116290614
83	0x3d4532ea	0.04814426
84	0xba269bd6	-0.0006355619
85	0x3d8aa55f	0.06769823
86	0x396a4591	0.00022341895
87	0xbda758b4	-0.08171216
88	0xbd8fc6d6	-0.07020347
89	0xbe1fa289	-0.15589346
90	0x3e39188e	0.18075773
91	0x3da0d301	0.07852746
92	0xbdf4dee3	-0.11956575
93	0x3d82702c	0.06369051
94	0x3def6072	0.11688317
95	0xbe2266a0	-0.15859461
96	0xbe2d16d8	-0.16903245
97	0xbdb95fff	-0.09051513
98	0xbcfac9d2	-0.030613814
99	0xbe4374e5	-0.1908756
100	0xbe2d0903	-0.16897969
101	0x3ce316ba	0.027720798
102	0x3e6f5a9b	0.23374407
103	0x3c42e061	0.011894316
104	0x3dac28f7	0.08406251
105	0x3e8eb5f0	0.27873182
106	0x3ea3bd42	0.3198033
107	0x3d542460	0.051792502
108	0x3df87ee7	0.1213358
109	0x3e1dace3	0.15397982
110	0x3d3e6998	0.04648742
111	0xbe26d956	-0.16293845
112	0x3d6c1ef0	0.05764669
113	0x3c0f73eb	0.008755664
114	0x3da444f3	0.080209635
115	0x3e093228	0.1339804
116	0x3db04339	0.08606572
117	0x3d4ee4fc	0.050511345
118	0x3d30377c	0.043021664
119	0xbc139680	-0.00900805
120	0x3cef86f7	0.029239161
121	0x3dc51570	0.096232295
122	0xbe050a77	-0.12992273
123	0xbe44235f	-0.19154118
124	0xbe3c17e8	-0.18368495
125	0xbe8e70d6	-0.27820462
126	0xbe08ffbd	-0.13378806
127	0xbe07e5f1	-0.1327131
128	0xbdf8e9c1	-0.1215396
129	0x3e127416	0.14302096
130	0x3c282548	0.010262795
131	0x3d1af11e	0.037827604
132	0x3e56c864	0.2097488
133	0xbe66b9df	-0.22531842
134	0x3d7adc91	0.061245505
135	0x3d9bf950	0.07615912
136	0xbd0b6e6a	-0.034040846
137	0xbde25cc4	-0.1105285
138	0x3e1ad8b8	0.15121734
139	0x3de20a60	0.11037135
140	0xbaefe339	-0.001830197
141	0xbe135892	-0.14389256
142	0xbdc3ac2e	-0.09554325
143	0xbe1ac1d0	-0.15112996
144	0x3de8a217	0.11359041
145	0x3d9df361	0.077124365
146	0x3e50f8fc	0.2040748
147	0x3cc8ba4b	0.024502894
148	0x3d911ac4	0.07085183
149	0x3e35ba44	0.17746836
150	0xbd0a7be9	-0.033809576
151	0x3e203b6e	0.1564767
152	0x3e32cfeb	0.17462127
153	0xbdecd568	-0.115641415
154	0x3dc48cb2	0.09597148
155	0xbd8522c7	-0.06500774
156	0x3d0cd545	0.034383077
157	0x3e1ecf34	0.15508729
158	0xbe239525	-0.15974863
159	0x3d0318f7	0.03200623
160	0xbdf39ae9	-0.11894781
161	0xbddde971	-0.10835541
162	0x3d920851	0.071304925
163	0x3dd80ce6	0.10549335
164	0xbe7bfffd	-0.2460937
165	0x3ce000e4	0.027344175
166	0x3dc1e85d	0.09468148
167	0xbc6cebf0	-0.014460549
168	0xbe480536	-0.19533238
169	0xbe12dbde	-0.14341685
170	0xbe5be6a8	-0.21474707
171	0xbe3feb4a	-0.187421
172	0xbcccda1a	-0.025006343
173	0xbdee68e6	-0.116411015
174	0x3d3bd85a	0.045860626
175	0x3da2cc80	0.079491615
176	0xbe033db8	-0.12816513
177	0xbc0a2814	-0.008432407
178	0xbe0a2c91	-0.13493563
179	0xbdb84494	-0.08997455
180	0x3e19e04c	0.15026969
181	0x3d2d2f75	0.042281587
182	0xbe0de5fc	-0.13857263
183	0x3d05710f	0.032578524
184	0xbda994e1	-0.082803495
185	0x3e09eef1	0.13470055
186	0x3e116ffd	0.14202876
187	0x3d1fe77c	0.03903912
188	0x3d6c820b	0.057741206
189	0x3d123d2d	0.035702873
190	0xbe3c1e70	-0.18370986
191	0xbd9fc269	-0.07800753
192	0xbdf7a833	-0.12092628
193	0xbd4753b2	-0.048663802
194	0x3e8881f9	0.2666166
195	0x3c9572c5	0.018243203
196	0xbc391346	-0.011296099
197	0x3dfb0107	0.12256055
198	0xbe37cf23	-0.1795011
199	0x3d18c1d6	0.03729423
200	0x3e2112f6	0.1572989
201	0x3bcf423c	0.0063250344
202	0xbcddda26	-0.02708156
203	0xbde4e97d	-0.11177347
204	0x3d14a014	0.036285475
205	0x3cac2712	0.021014724
206	0x3d00e90c	0.03147225
207	0x3e1bb288	0.15204823
208	0x3d920aa5	0.071309365
209	0x3da1468f	0.07874786
210	0xbdf8dd51	-0.12151588
211	0xbe90f328	-0.28310513
212	0x3d6bd093	0.05757196
213	0xbdb604fd	-0.0888767
214	0x3d3d033e	0.04614567
215	0x3d942746	0.07234053
216	0xbcbc3c7b	-0.022978058
217	0xbd89cf34	-0.06728974
218	0x3dd11d62	0.102106825
219	0x3d803776	0.06260578
220	0x3c7ab395	0.015301605
221	0xbc27e9f0	-0.010248646
222	0x3c18e15b	0.009331073
223	0x3bb3fb36	0.005492593
224	0x3d514fb0	0.051101387
225	0x3def76f7	0.116926126
226	0xbca8bb0b	-0.020597002
227	0x3cb42d86	0.021994364
228	0xbd9caa58	-0.07649678
229	0xbc899dd2	-0.016798887
230	0x3e42409f	0.18969963
231	0x3cb59f17	0.022170587
232	0x3da0bb6c	0.07848248
233	0xbd7954bc	-0.060871825
234	0x3de4d0cb	0.111726366
235	0x3de9cab7	0.11415618
236	0x3e128287	0.14307605
237	0x3e61bc6d	0.22044535
238	0xbdde1698	-0.10844153
239	0x3d91c7df	0.071182005
240	0x3e0004e9	0.12501873
241	0x3d46ab38	0.04850313
242	0x3e5a0bbc	0.21293539
243	0xbe053e0b	-0.13011949
244	0xbda06f0e	-0.07833682
245	0x3dbeb590	0.09311974
246	0xbe4c1271	-0.1992891
247	0xbe4217a5	-0.18954332
248	0x3a853232	0.0010162054
249	0x3c2679e2	0.010160895
250	0xbe5c51d3	-0.21515588
251	0xbc94fb90	-0.01818636
252	0xbd9d7510	-0.076883435
253	0xbce3d4cf	-0.027811436
254	0xbbc959be	-0.0061447313
255	0x3be5ba77	0.0070107537

bottle_neck.1.conv_block.2.weight f4 [32]
0	0x3f899b1b	1.075046
1	0x3f763f91	0.96190745
2	0x3f6aabfa	0.91668665
3	0x3f88aa00	1.067688
4	0x3f6dec1a	0.9293839
5	0x3f4d3667	0.80161136
6	0x3f678ec2	0.90452206
7	0x3f77da52	0.96817505
8	0x3f5620ed	0.8364399
9	0x3f83c7da	1.0295365
10	0x3f9c7ca9	1.2225543
11	0x3f5e192a	0.8675715
12	0x3f73e734	0.9527466
13	0x3f6458d8	0.89198065
14	0x3f82b60f	1.021181
15	0x3f646dd3	0.8923008
16	0x3f73fdad	0.95308954
17	0x3f80a69a	1.0050843
18	0x3f87b346	1.0601585
19	0x3f761092	0.96119034
20	0x3f70cb3a	0.940601
21	0x3f7d79ff	0.99014276
22	0x3f805422	1.0025675
23	0x3f64db47	0.8939709
24	0x3f5fb8f8	0.87391615
25	0x3f849fcf	1.036127
26	0x3f6eadb2	0.9323379
27	0x3f6144e6	0.87995756
28	0x3f5d2f3d	0.86400205
29	0x3f7c46b1	0.98545367
30	0x3f3f4636	0.7471651
31	0x3f84f052	1.038584

bottle_neck.1.conv_block.2.bias f4 [32]
0	0xbdcb6ad7	-0.099324875
1	0xbec14466	-0.37747496
2	0xbebfde22	-0.3747416
3	0xbe04c9f1	-0.1296766
4	0xbdfc36f0	-0.12315166
5	0xbf0f4cac	-0.55976367
6	0xbebc79a5	-0.36811557
7	0xbebb0637	-0.3652818
8	0xbe8214c9	-0.25406483
9	0xbed2eb12	-0.4119497
10	0xbf118c77	-0.5685496
11	0xbe8d358f	-0.27579924
12	0xbf1b32f0	-0.606246
13	0xbede5a74	-0.43428385
14	0xbede3dbb	-0.43406472
15	0xbe941276	-0.28920335
16	0xbeae3125	-0.3402187
17	0xbea9846b	-0.3310884
18	0xbe8575e5	-0.2606651
19	0xbeb1f0d2	-0.34754044
20	0xbe8f9d2d	-0.28049603
21	0xbec27b56	-0.37984723
22	0xbea62bd5	-0.32455316
23	0xbe74e3b8	-0.23914993
24	0xbed00db5	-0.40635458
25	0xbe2e86cb	-0.17043607
26	0xbea756f8	-0.3268354
27	0xbee8534d	-0.45376053
28	0xbe585dea	-0.21129575
29	0xbeaac862	-0.33356005
30	0xbefabafc	-0.48970783
31	0xbe87812c	-0.26465738

bottle_neck.1.conv_block.2.running_mean f4 [32]
0	0x3e58b979	0.21164502
1	0x3ffd77e6	1.9802215
2	0xc00a3f4f	-2.160114
3	0xbe9e6ca6	-0.30942267
4	0xc026cd31	-2.606274
5	0xbfe04665	-1.7521483
6	0x3ef6c45b	0.48196682
7	0xbf9df6b6	-1.2340915
8	0x3ec03a0f	0.37544295
9	0xbf6f5edd	-0.93504125
10	0x3fdd7acd	1.7303101
11	0xbe85adff	-0.2610931
12	0xbf41706d	-0.75562173
13	0xbf621836	-0.8831819
14	0x3fae3cd0	1.3612309
15	0xbfb0f9f0	-1.3826275
16	0xbd334098	-0.043762773
17	0xbefd5837	-0.49481365
18	0x401b2858	2.4243374
19	0xbc61d77a	-0.013784284
20	0x3f8f9ef7	1.1220387
21	0xbd47317f	-0.048631188
22	0x3f9e2630	1.2355404
23	0xbe916422	-0.28396708
24	0x3ea6cc5b	0.32577786
25	0x3e3e7557	0.18599449
26	0x4009cd85	2.153169
27	0x3fcae3d9	1.5850784
28	0x3fa78806	1.3088386
29	0xbf051fdf	-0.52001756
30	0xbf08f0fd	-0.5349272
31	0xc0074cab	-2.1140544

bottle_neck.1.conv_block.2.running_var f4 [32]
0	0x41a24bfa	20.287098
1	0x4183f6cf	16.495512
2	0x4217cf35	37.95235
3	0x4201e21c	32.47081
4	0x426c235f	59.034542
5	0x41bf24b8	23.89293
6	0x41a9e67f	21.237547
7	0x41badda1	23.358217
8	0x41baae15	23.335001
9	0x4203c2e6	32.94033
10	0x418bfdbe	17.498898
11	0x41cc1825	25.51179
12	0x41b8ebf5	23.115213
13	0x418e66cf	17.8002
14	0x41e59c42	28.701298
15	0x41b0c2d0	22.095123
16	0x41bbfcdc	23.498466
17	0x41cf6b20	25.927307
18	0x41cebc36	25.8419
19	0x41821ff7	16.265608
20	0x41b11ce6	22.13911
21	0x41c12c38	24.146591
22	0x419d4ffd	19.664057
23	0x41bc9172	23.571018
24	0x41963790	18.77713
25	0x41e799c9	28.95009
26	0x41d7b627	26.963942
27	0x41c566d0	24.675201
28	0x41c4ef40	24.616821
29	0x4183cd04	16.475105
30	0x4199a9d9	19.207933
31	0x420b4502	34.81739
